model_created.tflite (tflite, 475060 bytes, 6 tensors)

dense_2/bias f4 [10]
000000 48 d4 5e 3d b4 99 d3 bd f5 47 a4 bd 5a 64 e2 bd
       0.054401666 -0.10332051 -0.08021537 -0.11054297
000010 54 ea 62 3c 23 d4 dc bd 8f af dc bc d1 a4 db bd
       0.0138498135 -0.10782649 -0.026939182 -0.107247956
000020 ed 40 9e 3e 0c c4 96 3d
       0.3090891 0.07361612

dense_1/bias f4 [128]
000000 66 b2 c9 bd 7c 7f f9 bd 53 6f fa bd 56 01 57 3e
       -0.0984848 -0.12182519 -0.12228265 0.20996603
000010 eb 11 e7 bc eb f9 f0 3c 64 5d 4d 3c cf 1b 28 3e
       -0.028206786 0.029416045 0.012534473 0.16416858
000020 47 b4 4e bd 8b 10 1b 3e c1 51 fe bc ba 44 cd 3d
       -0.050464895 0.1514303 -0.031044843 0.10022874
000030 ac fb e3 3d 38 60 c2 3d 84 7c 37 3e 39 49 0a 3e
       0.11131987 0.094910085 0.17918593 0.13504495
000040 77 f1 c2 bd 47 4a 37 3e 72 bd b1 3c 2b c8 ff bc
       -0.09518712 0.17899428 0.02169678 -0.031223377
000050 59 0c 6b 3d 51 11 69 3d 45 72 1e 3d 50 53 32 bd
       0.057384823 0.05690128 0.038683195 -0.043536484
000060 86 9f 5e bb c9 99 df 3d a8 56 65 bd bd ba 06 3e
       -0.0033969595 0.10918004 -0.055990845 0.13157173
000070 8e 12 1c 3e 7f 89 85 bd 6e 8c 87 3d 19 f5 1f 3c
       0.15241453 -0.06520366 0.06618582 0.009763026
000080 87 43 13 be 51 ed 30 3d 3a 9d 1d bd 82 cf 7b bd
       -0.14381228 0.043195073 -0.03848002 -0.06147719
000090 cb 08 02 3e a2 c6 08 3e 28 3d 8e 3d c7 20 88 3c
       0.12698667 0.13357022 0.069452584 0.016617192
0000a0 8f ae 1f be 52 c3 18 3e 13 d9 8b bc af c0 23 3e
       -0.15593933 0.14918259 -0.017071282 0.15991472
0000b0 01 8e e9 3c 13 08 d8 3d 3d f7 01 bc 1e c1 b2 3d
       0.028510096 0.10548415 -0.007932481 0.087282404
0000c0 b5 f3 5b 3e a0 e8 0f 3e 8f 5e 35 bd ad 9c 09 3e
       0.21479686 0.14053583 -0.04427963 0.13438673
0000d0 71 29 c1 bc 4c 9f ae bc 9e d9 20 be d6 92 5d 3d
       -0.023579331 -0.021316193 -0.15708014 0.05409511
0000e0 9d 27 a4 3d 6a 20 d4 3d ee d3 02 3d a2 27 ca 3c
       0.08015368 0.10357745 0.031940393 0.024677102
0000f0 92 e0 d0 3c f7 58 95 bc 6e ac f0 3b 9d 10 a9 bc
       0.025497708 -0.018230898 0.007344774 -0.020637805
000100 97 79 a6 3b 95 f3 3c bd 4a 90 3b bd 38 8d c8 bd
       0.0050804126 -0.046130735 -0.0457919 -0.0979256
000110 2a 83 6c bd 91 10 2f 3d 98 5d 3e bd 79 4a cb bd
       -0.057742275 0.04274041 -0.046475977 -0.09926314
000120 34 19 cb bd 83 1d 95 bc 44 fd 88 3d 09 aa 5d 3d
       -0.099169165 -0.018202549 0.066889316 0.054117236
000130 41 67 24 3d 13 b1 0a bd a4 96 53 3e 70 23 1f 3d
       0.040137533 -0.033860277 0.20662934 0.038852155
000140 98 00 b2 3d 18 95 27 3e 3d 15 5f 3c 3e 34 a9 3c
       0.086915195 0.16365469 0.013615903 0.020654794
000150 01 13 20 3d 06 45 8f 39 b4 45 2e 3e 64 59 c4 b9
       0.039080624 0.00027326512 0.17018777 -0.00037450634
000160 a9 00 31 3c a7 74 75 bd f6 df c7 3d 8a a7 ef bc
       0.01080338 -0.0599257 0.09759514 -0.029254694
000170 dd 50 66 bd 3a 36 df 3d 0d db 06 3d 72 19 a5 bd
       -0.05622946 0.10899015 0.032923747 -0.08061494
000180 ff 15 3d 3e cf e1 1c bd 26 11 1b 3e 0c 62 c7 bc
       0.18465422 -0.038301285 0.1514326 -0.024338745
000190 0c ec 74 bd 52 1d b4 3d 16 83 5f 3d 10 94 4b 3d
       -0.059795424 0.08794655 0.054568373 0.04970175
0001a0 21 12 cc 3c 1d 4c 05 3d 3f 37 b3 3d 64 f2 2d bd
       0.024910988 0.03254329 0.08750772 -0.04246749
0001b0 ce 71 a2 bd 01 c5 29 3e b2 68 84 bd b9 d9 1f 3d
       -0.07931863 0.16579057 -0.064652815 0.039025996
0001c0 61 f3 30 3d 20 9a 22 bd c0 02 08 be 1e cd 00 be
       0.043200854 -0.039697766 -0.13282299 -0.12578246
0001d0 f2 d1 82 3d fb 48 3e 3e fd f3 b2 3d 22 5c 2b 3e
       0.063877 0.18582527 0.08737943 0.16734365
0001e0 62 8c 46 3c e2 f7 7f 3c 8f e5 f6 bd 58 81 e2 3c
       0.012118431 0.015623065 -0.120555036 0.027649567
0001f0 5d 77 39 3e 80 84 07 3e 90 26 35 3d 20 e4 d8 3d
       0.1811194 0.13234138 0.04422623 0.105903864

dense/bias f4 [128]
000000 ee 70 c0 bc 3a 94 5c bc 71 de d1 3d 3e bd fb 3c
       -0.02349135 -0.013463074 0.102475055 0.030729886
000010 b7 d4 dd 3d 80 38 6d bd 71 a9 bd bd 1a 48 b7 3c
       0.10831588 -0.05791521 -0.09260834 0.022373248
000020 4c 10 c7 bb 38 2f 97 3c 55 f8 c8 3c b3 e3 04 3d
       -0.006074941 0.018455133 0.024532476 0.032443713
000030 28 aa 35 bd c3 86 76 bd d8 92 a5 bc db 18 c1 3d
       -0.044351727 -0.060187113 -0.020211622 0.09428569
000040 d2 ec d9 bb b6 28 85 bd 92 99 30 bd 38 79 18 bd
       -0.0066505456 -0.065019056 -0.043115206 -0.03722498
000050 21 c1 97 3d a6 ce 23 be 45 3a 1b 3c 29 2e de 3d
       0.07409883 -0.15996799 0.009474342 0.10848648
000060 c7 bc 12 3e 60 b5 74 bc ed 63 b4 3c 40 44 2f bc
       0.14329825 -0.014935821 0.022020305 -0.010697424
000070 81 80 36 bd 2a 47 14 be b4 08 0b be 6c 7b 2d 3d
       -0.044556145 -0.14480272 -0.13577539 0.042354032
000080 1f f0 00 bd c3 a7 32 3d a1 62 c6 bd 2c 43 2a 3d
       -0.031478997 0.04361702 -0.09686781 0.041567966
000090 a2 6a 99 bc c4 88 53 bd 87 e0 5e 3c 78 bf 3f 3b
       -0.018727604 -0.0516441 0.013603336 0.0029258411
0000a0 74 70 1f 3d 63 2b 85 3d 52 ca 96 3d 01 35 48 bd
       0.038925603 0.06502416 0.07362808 -0.048878673
0000b0 28 d5 ac bc a8 2d cb 3c fd 5d 8e bb 96 36 9e bc
       -0.021097735 0.024802044 -0.0043447004 -0.019313138
0000c0 40 ed 67 3c 94 7f bc bd b0 94 8c 3d 75 ba 86 bc
       0.014155686 -0.09204021 0.068642974 -0.016446332
0000d0 6b 4b 7b bc 00 78 af bc ed c1 89 bd 4a c8 78 3d
       -0.015337805 -0.021419525 -0.067264415 0.060737886
0000e0 0b 42 36 3d 3e 56 ae 3d 94 5f 28 3d bd 59 d1 3d
       0.044496577 0.08512543 0.041106775 0.10222194
0000f0 05 c7 0f 3e 3d c7 01 3b 30 e9 87 3d ce 64 1f 3e
       0.14040764 0.0019802593 0.06636274 0.15565798
000100 86 6e ed bc d9 40 6d 3b a6 51 49 bd ff 95 f1 bd
       -0.028983366 0.0036201982 -0.04915013 -0.117961876
000110 5c 35 3a bd 8d ce 15 be 8a 19 94 3d 66 3f f5 3d
       -0.045461044 -0.14629574 0.07231434 0.11974983
000120 0e de 8d bc c1 89 ac 3d 3e 72 a6 ba 67 77 33 be
       -0.017317798 0.08424712 -0.0012698842 -0.17526017
000130 f4 88 fe bc 7c d6 2e bd 49 6e 8b 3d 33 f5 f5 3d
       -0.031071164 -0.042685017 0.068081446 0.12009659
000140 d5 0a ca 3b e5 01 ce bd 85 4b 0f be f4 0b 92 bc
       0.006165842 -0.10058955 -0.13993652 -0.017827965
000150 4f c1 7c 3d b3 81 86 3e cf af 1f 3e 10 e4 93 3d
       0.06170779 0.26270828 0.1559441 0.07221234
000160 44 97 f8 3d 61 8d c3 3d eb c9 0e bc 91 66 0b 3e
       0.12138227 0.0954845 -0.008715133 0.13613345
000170 48 4e 22 bb 06 01 00 be be 9f 1c be 52 54 ee bd
       -0.0024765898 -0.1250039 -0.15295312 -0.116371766
000180 e4 f0 54 bd 43 8a c1 3d cc 56 04 be 8f 8f ea bc
       -0.051987544 0.094501995 -0.12923735 -0.028632907
000190 94 cc a2 bc 80 23 45 bd 85 d6 03 be 6c e7 29 bd
       -0.019872941 -0.04812956 -0.12874801 -0.041480467
0001a0 39 18 8b 3d 3b bc e9 3c de df 4b 3b 75 d6 1e bd
       0.067917295 0.028532138 0.0031108777 -0.03877874
0001b0 7d 60 a6 bc e8 a2 41 bc 8d 74 d6 bd 92 1a db 3d
       -0.020309681 -0.011818625 -0.10471449 0.10698427
0001c0 69 61 55 3c 27 2a 09 be c4 9e 1e 3b 75 4a 13 3d
       0.013023713 -0.13394986 0.0024203518 0.03595968
0001d0 cd 66 17 be 34 27 fc 3c 78 c0 f2 3d d1 23 7c 3a
       -0.14785309 0.030780412 0.11853117 0.0009618374
0001e0 7b 38 0c be c6 5e d9 3c c1 56 65 bd fb 1f c8 3c
       -0.1369342 0.02653445 -0.055990938 0.024429312
0001f0 74 d1 2c bd ac a4 4a 3d 97 af 8d bc fc c4 04 3d
       -0.042191938 0.04947345 -0.017295642 0.03241442

sequential/dense/MatMul f4 [128, 784]
000000 30 4c e2 bc cc 05 80 bd 58 8e 5d bd 07 12 a6 bd
       -0.02762422 -0.06251106 -0.054090828 -0.08108907
000010 53 a9 a3 3d a0 ec c2 3b 2e 80 6d bd ec 14 47 bd
       0.079912804 0.005948618 -0.05798357 -0.048603937
000020 95 0d 44 bd f4 de c1 3c c6 35 28 3d d5 25 a3 3d
       -0.047864515 0.023665883 0.041066907 0.079662
000030 68 5d dd bc e0 3c f5 3d 43 3f 80 3d d3 3e 29 bb
       -0.027022079 0.119745016 0.06262066 -0.00258248
000040 90 8c 94 bd f5 a9 8d bd 24 90 90 3c 43 ce 88 3d
       -0.07253373 -0.06917182 0.017646857 0.06679966
000050 d4 9f f7 3c e6 82 df bc a0 6c 52 bc 86 b1 9c bd
       0.03022758 -0.027284097 -0.012843281 -0.076510474
000060 2a 88 5d bd c0 63 af 3a b4 06 75 bd 92 c4 4e 3d
       -0.054084934 0.0013381168 -0.059820846 0.050480433
000070 30 62 81 3b ba 8f 28 3d d2 03 45 3d 22 99 92 bd
       0.0039484724 0.041152693 0.048099346 -0.07158114
000080 45 c9 98 3d ec d0 2c 3c 7c 98 a4 bd 1d 85 16 3d
       0.07460264 0.010547858 -0.080368966 0.03674804
000090 1c e8 85 3d cf f3 a9 bd ba 50 ab 3d 33 46 e8 bb
       0.06538412 -0.08298456 0.08365007 -0.0070884465
0000a0 ff a0 d6 3d 0a 27 8a 3d 8c 5f d6 bc 28 45 c4 3b
       0.10479926 0.06745727 -0.026168607 0.0059896894
0000b0 47 83 68 3d 58 f6 66 3c 08 ed 1a 3c 7c 6f a1 3c
       0.05676582 0.014096819 0.009455927 0.01970648
0000c0 bb dd 0f be 5d 5d f6 bd 57 52 20 3c 13 3b d2 3d
       -0.14049427 -0.120295264 0.009785256 0.10265174
0000d0 2c b9 12 bd a8 a8 90 bd 71 aa 92 3d 4c 79 44 bd
       -0.035821125 -0.070634186 0.07161415 -0.04796724
0000e0 c0 2f d5 ba 3c fe 20 3d 1d eb 90 3d 35 71 8b 3d
       -0.0016264841 0.039304957 0.07076094 0.06808702
0000f0 90 19 81 3d 53 75 66 bd f0 b2 69 bd 4a c9 b1 3d
       0.06303704 -0.056264233 -0.057055414 0.08680971
000100 2a 74 c4 3d bb 31 fd 3d 9f fb df 3c 1a c2 5a bd
       0.09592469 0.12363001 0.027341662 -0.053407766
000110 a1 6d 8b bd cc 68 f5 bd 79 9f ed 3b e0 a1 bf bd
       -0.068080194 -0.11982879 0.0072516766 -0.09357047
000120 94 af 3f bd 26 ef 10 bd 62 bd 31 bc db f5 04 be
       -0.046798304 -0.03538432 -0.010848375 -0.12984411
000130 ba 3f a7 bd 34 2c 49 3d f7 dc 47 3d 46 1a 0c 3c
       -0.08166452 0.04911442 0.048794713 0.008551186
000140 3a 50 2a 3e 8c f5 e7 3c 4a 1a 60 3d 20 bd ea bb
       0.16632167 0.028315328 0.05471257 -0.0071636587
000150 3a e2 3f 3d bc ce 94 3c 41 5d b0 3d d0 5d 7b bc
       0.046846606 0.018164985 0.08611537 -0.015342191
000160 62 89 04 3d 71 e1 6e 3d db 9a 91 3d 51 51 cc 3d
       0.03235758 0.058320466 0.071096145 0.099764474
000170 d6 41 8c 3d cf 1f 62 3e 80 b4 eb 3d 2b 9f 39 3d
       0.06848495 0.22082447 0.11509037 0.04531781
000180 a0 55 92 bc ce e8 a2 3d bd 52 c2 bc 5f 24 9a bc
       -0.017863095 0.0795456 -0.023721093 -0.018816171
000190 77 2b 90 3d dc 42 80 3d 0e 1f e0 bc ab b0 8f bb
       0.0703954 0.062627524 -0.027358558 -0.004385074
0001a0 89 41 30 3c cf f0 29 bd b6 60 0b bd 22 38 7e bd
       0.010757812 -0.04148942 -0.034027778 -0.06206525
0001b0 ae 2a f8 3b e3 15 e6 3d 84 4f 0b bc b7 51 8e bd
       0.007573447 0.11234643 -0.008502845 -0.069491796
0001c0 5f 38 5a bd 32 2f 6e 3d 14 ea 19 3c d5 ee 8c 3d
       -0.053276416 0.058150478 0.0093941875 0.06881491
0001d0 f9 01 de bc fe 57 28 3d 9f 3a 38 3e c6 ae 27 3d
       -0.02710055 0.04109954 0.17991112 0.04093816
0001e0 41 2e 38 bd b6 d5 c1 3d 7f df bd 3d 90 41 a8 3d
       -0.044965986 0.0946459 0.09271144 0.0821563
0001f0 e4 38 84 3d 8f a1 57 bd 95 d4 9c bd f2 13 5b 3d
       0.064561635 -0.05264431 -0.07657734 0.05348582
000200 e1 e4 2f bd 88 8e f6 3c 1a 83 46 3b 9d e0 83 bc
       -0.042942885 0.030097261 0.0030290545 -0.016098315
000210 9b c8 e5 bc e2 38 b5 bd 92 e5 b5 bc a3 2d 11 be
       -0.028049758 -0.0884874 -0.022204194 -0.14177565
000220 5c bf 16 be e8 e5 c9 bc 16 46 10 be 7c a8 a7 bd
       -0.14721435 -0.02464576 -0.14089236 -0.08186433
000230 14 a2 84 3c b0 24 57 bc dc 8f dd 3d 4d 7b 10 3c
       0.016190566 -0.013131306 0.108184546 0.00881846
000240 9f 86 76 bc 39 c5 cc bd ff db fc bc 48 14 12 3e
       -0.015046745 -0.09998555 -0.030866621 0.14265549
000250 9c 9d 11 3d b6 1d bd 3d 41 1d 2d 3c b0 e1 a8 3c
       0.0355507 0.092341825 0.010566057 0.020615429
000260 09 b5 1a 3c 0c 78 98 bd c3 77 cd bb dd aa a5 3c
       0.009442576 -0.07444772 -0.00627038 0.020223076
000270 19 09 26 3e dd c0 c0 3c 92 ff 8c bd c6 e8 d5 bd
       0.16214408 0.023529464 -0.06884684 -0.10444789
000280 66 6b bc bd 0c 06 0a bd 03 89 09 3d 43 64 fc bc
       -0.09200172 -0.033697173 0.03357793 -0.030809527
000290 2d 55 60 bd ee af 38 bd b8 4f 28 bd 73 d1 c8 bd
       -0.05476873 -0.045089655 -0.04109165 -0.09805574
0002a0 ed 91 96 3d 09 fe 97 3d d3 fc e8 3c 71 f7 93 bd
       0.07352052 0.074215 0.028440868 -0.0722493
0002b0 6b ca e2 bd 63 e4 2a be 1c cf 0d 3a de c2 12 3d
       -0.110737644 -0.16688685 0.0005409585 0.03583037
0002c0 00 a3 59 bd e0 68 58 3d c5 a2 39 3e 73 6f e1 3d
       -0.053133965 0.05283439 0.18128498 0.110075854
0002d0 e2 08 70 bd d4 8d b8 3c 7c f4 51 bc fe b3 38 3d
       -0.05860222 0.022528566 -0.012814637 0.04509353
0002e0 7e 80 cc 3d 69 ce 2b bd a9 22 a1 bd 61 6f fe 3b
       0.099854454 -0.041944895 -0.07867939 0.0077647422
0002f0 86 4c b4 bd 1c 80 05 be 77 d3 b5 bd e5 c7 e7 bd
       -0.08803658 -0.13037151 -0.08878224 -0.11317424
000300 f0 4e b7 bd b1 80 a6 bc 12 f5 d4 3d 92 bf 76 3d
       -0.08950603 -0.020325037 0.10398306 0.06024129
000310 f4 53 54 bd 07 d2 8c 3c fa 67 34 3d 32 b9 11 3e
       -0.051837876 0.017189993 0.044044472 0.14230803
000320 2e f3 7f 3d e0 35 17 bd dc f1 83 bd cc f8 be 3c
       0.062487774 -0.036916614 -0.064426154 0.023311995
000330 93 30 96 bc e8 f5 00 3e 02 4c 28 3e 04 d0 da bc
       -0.018333709 0.12593806 0.16435245 -0.026710518
000340 8f c8 72 3d 65 c0 29 3d 1d 60 85 3c 63 5a 8b 3a
       0.0592733 0.041443247 0.016281182 0.0010631796
000350 e3 82 44 bd 03 32 d5 3c 98 90 b5 3c e4 b6 61 bb
       -0.047976386 0.026024824 0.022163674 -0.0034441287
000360 84 f8 b7 bc 65 de c4 bd 6f 19 04 bc d7 11 2f be
       -0.022457369 -0.09612731 -0.0080627045 -0.17096649
000370 0a a8 16 be fd 69 36 be 48 33 6f bd f8 78 fa 3c
       -0.1471254 -0.17813869 -0.058398515 0.03057526
000380 a8 2e 09 3c e9 ed d8 3d e4 4b 04 3c b3 e6 b7 bb
       0.00837294 0.10592253 0.008074734 -0.0056122183
000390 94 8f b2 3d 6a ba af bb c5 07 b1 bb 28 b8 a1 bc
       0.087187916 -0.0053627985 -0.0054025375 -0.019741133
0003a0 2e aa f8 3c 7c cd 66 3d 34 b2 16 3e ba 47 d3 3d
       0.030354585 0.05634831 0.14716417 0.10316415
0003b0 02 15 00 38 da 3d 6d 3d e6 b7 f8 3c ad 48 b2 bc
       3.0537143e-05 0.057920314 0.030361127 -0.02176317
0003c0 7d 44 f2 bc 83 44 89 3d e6 cb dc bc 3c 72 c3 bd
       -0.029573673 0.06702521 -0.026952695 -0.09543273
0003d0 16 77 a2 bc 18 d9 8d bd 2c 69 9e 3d 26 f7 f5 3b
       -0.019832175 -0.06926173 0.07734904 0.007506269
0003e0 bc 4e a1 be 10 5d e1 bd c8 cd 77 3d 70 01 ce 3a
       -0.31505382 -0.110040784 0.060498983 0.0015716981
0003f0 00 74 9e b8 e2 69 18 bd ad 4c 7d 3b 18 95 8b 3d
       -7.555634e-05 -0.037210353 0.0038650439 0.06815547

sequential/dense_1/MatMul f4 [128, 128]
000000 38 9e 26 3e 35 97 85 3e e3 73 b8 3e 7c ab 02 be
       0.16271293 0.26091924 0.36025915 -0.12760729
000010 be 1a 84 3d cc a9 1d bd 60 4a d7 3d f4 f4 db 3d
       0.06450413 -0.03849201 0.10512233 0.107400805
000020 27 eb 4d be 16 be 8e 3d 34 bd ba 3d b7 e1 cd 3d
       -0.20109235 0.0696985 0.09118119 0.10052817
000030 7a c7 44 be 2f 15 2c 3e c5 c1 75 3e 03 3c ed 3d
       -0.1921672 0.16804956 0.23999698 0.11583712
000040 d3 65 18 bd a5 ab 2f be 4f 57 12 be 41 a7 aa bd
       -0.037206482 -0.17155321 -0.14291118 -0.083326824
000050 23 75 dd bc de 54 41 be 0e 82 2e 39 d0 a5 af 3d
       -0.027033394 -0.1888003 0.00016642382 0.08576548
000060 06 a9 62 3e e5 3b 68 be d8 36 4b 3e 42 59 1d 3c
       0.2213479 -0.22679098 0.1984514 0.0096038
000070 9f b4 ba bd 37 be e5 3d ed 55 fa 3d 75 4c 05 be
       -0.09116482 0.11217921 0.1222342 -0.13017447
000080 4f db 0d 3e c8 c7 94 3e c4 cb 73 3d 39 f2 76 be
       0.13853191 0.2905867 0.059520498 -0.24115838
000090 78 32 71 3e dd 28 fd 3d 52 f3 4e 3e 27 f3 63 be
       0.23554409 0.1236131 0.20210007 -0.22260724
0000a0 92 b4 96 bd ce 0f fc bc b0 16 89 3e 86 07 53 be
       -0.0735866 -0.030769255 0.26775122 -0.20608339
0000b0 ce 2e b1 be 4c 9f 2a bd 5a ca 06 be ac 6e b4 bd
       -0.34606022 -0.041655824 -0.13163128 -0.088101715
0000c0 26 ed e2 3d 1b 2f 27 3c d3 4f ca 3d 7a 9c 26 be
       0.11080389 0.010204102 0.098785065 -0.16270629
0000d0 46 90 6f 3d 29 88 8a 3d 53 9d 6a 3e 50 e4 de 3d
       0.0584872 0.06764252 0.22911577 0.10883391
0000e0 79 ab 19 3e 90 fb 59 3d bf fe ed 3d f0 70 f0 3d
       0.15006818 0.053218424 0.116208546 0.11740291
0000f0 31 df 59 3c be 58 65 bd 49 1d fa bd 29 63 c5 3d
       0.013297842 -0.055992834 -0.12212617 0.09638054
000100 43 23 4e 3b 52 09 0c 3e 3d a1 e2 3d 01 89 be bd
       0.0031454123 0.1367543 0.1106591 -0.09303475
000110 5b 5f 5d 3d 1d 20 66 3e 3e 03 e0 bd 72 ed f0 b9
       0.054046016 0.22473188 -0.109381184 -0.00045953278
000120 5e 25 12 3d 41 cb 08 be b5 67 6f 3e 60 c1 ac 3d
       0.035680167 -0.13358785 0.23379405 0.08435321
000130 0a 7d d1 bc 52 7d 04 bd 32 3f 16 be d4 76 a2 3d
       -0.025572319 -0.032346077 -0.14672545 0.07932821
000140 73 fe 50 bd b3 d6 6f 3d c2 a1 e4 3d 53 c9 68 3e
       -0.05102391 0.058554363 0.11163665 0.22733049
000150 4b 3e 8c 3d a7 b5 8b 3e d1 32 f7 3d 25 58 57 3d
       0.06847819 0.27287027 0.12070239 0.052574296
000160 e3 77 21 bd f8 f2 d0 3d 14 c7 16 3e 6d 7b 3f 3d
       -0.039420974 0.102025926 0.1472438 0.046748567
000170 17 9a 0a 3e a5 1b 98 bd c1 6c d4 3c 89 9f ca 3d
       0.13535343 -0.07427148 0.025930764 0.0989371
000180 6f a3 34 bd 4b 72 86 3d 8c fb 85 bd ac 56 0d 3e
       -0.044101175 0.065647684 -0.065421194 0.13802594
000190 df 38 ce bb 7d 4a 59 3d 55 7a 65 3c 10 7e 56 3e
       -0.0062934007 0.053049553 0.014006217 0.20946527
0001a0 83 73 c4 bd d9 aa 39 3e 9f 93 db 3d 70 bb 40 3d
       -0.095923446 0.1813158 0.10721516 0.047053754
0001b0 2e 51 89 3e f5 9c b7 3e af 8c 9a 3d 42 f6 a7 3d
       0.26819748 0.35861936 0.075463645 0.08201267
0001c0 f6 4b 12 bd d6 1e f0 bd 82 b4 bb bc ee 42 13 3d
       -0.035716973 -0.117246315 -0.022913221 0.0359525
0001d0 ac 8d 21 3d ce 09 8c bd 55 98 c4 3d 5b 1d b8 bd
       0.03944175 -0.068378076 0.095993675 -0.08989974
0001e0 6d bb 7d bd c6 8d e8 3d 54 8a 31 3e fc 91 69 be
       -0.06194632 0.11355166 0.17337924 -0.22809595
0001f0 3f 3f 8b 3d f6 17 2a be 06 2e 96 3e f2 db 33 bd
       0.067991726 -0.16610703 0.29331988 -0.043910928
000200 cd 46 91 3d 46 dc 31 3e 15 76 45 3e 7f 1e a3 3d
       0.07093582 0.17369184 0.19283326 0.07964801
000210 fc e1 13 be 3e dd 78 bd 58 84 0f 3e ba d5 cd bd
       -0.14441675 -0.060757868 0.14015329 -0.10050531
000220 99 51 74 be bb af 22 3e 61 00 ad bd d9 f3 57 bd
       -0.23859252 0.15887348 -0.08447338 -0.052722786
000230 28 d2 41 bd 6c 8a a3 3c 4a e4 d8 3d 99 b9 51 3e
       -0.04731956 0.019963466 0.10590418 0.20480956
000240 35 64 09 3e a7 90 1e be 0d 78 f0 bd 9b 7b bf bd
       0.13417132 -0.15484868 -0.11741648 -0.09349748
000250 45 fe 06 bd c6 fd 70 be 4c 7f 18 be d9 8f b0 3d
       -0.032957334 -0.23534307 -0.1489231 0.08621187
000260 80 c5 dc 3d ee 8a 86 be aa 5d 24 3e 13 9f 84 be
       0.10779858 -0.2627787 0.16051355 -0.25902614
000270 2a 74 88 3d 41 db 0d 3e 15 8b 8c bc a1 e7 48 be
       0.066627815 0.1385317 -0.017156163 -0.1961961
000280 22 7d cb bc 66 a6 46 3e 28 e7 a7 3d 4d af 67 bd
       -0.024839941 0.19399413 0.081983864 -0.056563664
000290 b4 79 bf 39 0d c6 2b be 54 c7 ed 3d 73 aa 4c be
       0.00036521035 -0.16774769 0.116102844 -0.19986896
0002a0 21 aa 52 bd ad f1 ed 3c 4a 4e 16 3e bf d0 78 3e
       -0.05143178 0.029045904 0.14678302 0.2429838
0002b0 e0 9e b4 be 42 7f c3 bd f7 52 ab be ba d4 82 bd
       -0.35277462 -0.09545757 -0.33461735 -0.063882306
0002c0 3e e5 12 3d 09 61 12 be 59 8c 53 be 9b b2 4e 3d
       0.035863154 -0.14294828 -0.20659007 0.0504633
0002d0 1f f7 1f be 13 ac e9 3d 54 57 01 3e 0b 0e 06 3e
       -0.15621613 0.11409774 0.1263097 0.13091294
0002e0 9b 20 bc 3d ad 2d 78 be bd 20 0f be 65 c0 ad bc
       0.091859065 -0.24236174 -0.13977332 -0.021209905
0002f0 19 9f da bc 4e da 5a 3e ec 55 81 be 7e eb f7 bd
       -0.026687192 0.21372339 -0.25260866 -0.121054634
000300 91 8c 2b be 22 d1 24 3d bd b8 34 3e 10 1d a0 bd
       -0.1675284 0.040238507 0.17648597 -0.07818043
000310 c8 ed 55 bc 12 67 71 3d ed e0 00 3d 55 62 4e 3d
       -0.01305718 0.058936186 0.031464506 0.050386745
000320 52 58 06 3e 50 85 47 be cd 98 02 3e 42 67 46 bd
       0.13119629 -0.19484448 0.12753601 -0.048438318
000330 dd 55 d6 bd 68 6a 13 3d 46 78 57 be 98 9e e2 be
       -0.10465596 0.03599015 -0.21041974 -0.44261622
000340 71 a5 ee bd 91 8a 28 be cb d4 e4 3d d9 28 9d bc
       -0.11652649 -0.16459109 0.111733995 -0.019184517
000350 09 53 9b be 70 f5 12 bd 5f 76 91 3e 12 6e 10 be
       -0.30336788 -0.0358786 0.28410622 -0.14104488
000360 74 7f 26 3d c1 6e 1e bc d3 e0 36 3d cf ae c7 bd
       0.040648893 -0.0096699605 0.044648003 -0.09750139
000370 76 56 2c be f0 83 17 3d d1 bd a3 bd ff 4b 8b 3e
       -0.16829857 0.03699106 -0.07995189 0.27206418
000380 80 b2 c7 3d 2e 00 cf 3d 08 1c e3 3d b6 74 8e 3d
       0.09750843 0.10107456 0.11089331 0.069558546
000390 ba a1 cd bc 0e 91 10 be 09 ba cb 3c ce af 0f 3e
       -0.025101531 -0.14117834 0.024868982 0.14031908
0003a0 64 97 58 b8 fb 43 b2 bc c8 1d 2a 3e 4a ff 86 be
       -5.1639407e-05 -0.021760931 0.16612923 -0.26366645
0003b0 74 77 ac 3e d8 da 47 3d 32 63 2c 3e d4 be 55 bc
       0.33684886 0.04879269 0.16834715 -0.013045985
0003c0 51 cc 44 be bf 4d 1c 3a 6c 5c ee 3d 90 70 35 bd
       -0.19218566 0.0005962513 0.11638722 -0.0442968
0003d0 03 f0 24 3d 16 eb 71 3e 53 50 45 be 96 a0 20 3c
       0.040267956 0.23624834 -0.19268923 0.009803912
0003e0 3f 1a 89 3d 7b 77 f2 3d 83 ed aa 3e a9 20 8c be
       0.06694459 0.11839195 0.33384332 -0.27368668
0003f0 27 54 96 bd 33 41 1b 3c f4 06 89 bd 95 aa 77 bd
       -0.073402695 0.009475994 -0.06690779 -0.060465414

sequential/dense_2/MatMul f4 [10, 128]
000000 da b1 99 bd e4 56 c9 be e4 da f8 3d d5 e3 71 3e
       -0.075046256 -0.39324105 0.12151125 0.23622067
000010 15 e6 96 3d c1 d5 19 3d c0 fc 3b 3d 4d 69 85 3d
       0.073681034 0.037557367 0.045895338 0.06514225
000020 e9 63 3e 3e b3 e8 21 3e 5d 38 51 be 4d d8 69 bd
       0.185928 0.15811424 -0.20431657 -0.057091046
000030 80 27 98 be fa 14 5f 3e 7e 5f 4a bc ad 6a 62 3e
       -0.29717636 0.21785346 -0.012351869 0.22111006
000040 1c 38 33 be b5 d0 5f 3e 96 a9 c8 3d 9c c5 06 3e
       -0.17501873 0.21856959 0.09797971 0.1316132
000050 30 d4 40 be 4c ba 2c 3e 82 ce fc 3d 6d 19 56 be
       -0.18830943 0.16867942 0.12344076 -0.20908137
000060 c8 3f 18 bd 89 6e 9e be 7a 8e 37 3e fa 22 9c be
       -0.0371702 -0.30943707 0.17925444 -0.30495435
000070 c2 8c ed 3d c4 dc 40 3c ac 92 e3 bb a3 02 98 3e
       0.11599113 0.011771385 -0.006944975 0.29689512
000080 44 c3 2d be e5 bb 8c bc e0 33 ac 3d 31 ce 15 3d
       -0.16969019 -0.017179439 0.08408332 0.036573593
000090 3a be 84 3d 17 9d e9 bd 9b e1 11 3d ce 66 7d be
       0.06481595 -0.11406916 0.035615545 -0.24746248
0000a0 f3 c7 c3 be 5c 36 5b be 24 d1 cb 3c a7 43 36 be
       -0.38238487 -0.21407455 0.02488 -0.17799245
0000b0 1a bb a7 3d 31 6e 2c 3e 4f 88 89 bd 93 a6 83 be
       0.08189984 0.1683891 -0.06715452 -0.25713024
0000c0 9c f9 94 3d 52 57 b2 be 71 7a 28 3e d1 42 5b be
       0.07274172 -0.34832245 0.16452958 -0.21412207
0000d0 0a fa af 3e 42 b6 10 be ed 7a 98 be 1e 4e d4 3d
       0.34370452 -0.14132026 -0.29781285 0.10366462
0000e0 27 f2 58 3e 17 40 be bd 4c ea eb bd b9 78 16 3e
       0.21186124 -0.09289568 -0.11519298 0.1469449
0000f0 e7 f3 9b 3d ff ed 93 3e 43 43 a5 be 7a 8b a0 bd
       0.0761488 0.28892514 -0.3227788 -0.07839103
000100 d3 fa 0b be 25 fa a3 be 66 66 a3 3d 3d 93 5e be
       -0.136699 -0.32026783 0.07978515 -0.21735854
000110 b9 9c ad be 76 d8 c9 be 1d 31 80 3c f0 e7 c1 be
       -0.33908632 -0.3942296 0.015648419 -0.37872267
000120 2c f1 8a be 5a 66 2c be dc b1 82 3e f7 8c 2b 3e
       -0.27137125 -0.16835919 0.2552632 0.16752993
000130 31 7e 21 3e 38 c3 71 bc 1c 30 fe 3d d9 10 59 3d
       0.15770794 -0.014756016 0.1241152 0.052994583
000140 85 af 00 be 03 6b fd 3d cd 0d c5 bd c0 4d 27 3e
       -0.12566955 0.123739265 -0.09621773 0.16338253
000150 c5 76 17 bd 18 28 4e 3e 21 cb 4d 3e 60 54 6c be
       -0.0369785 0.20132482 0.20097019 -0.23079062
000160 b8 0a 8e 3d 43 46 16 be fc de 4b be cc 9f a9 bd
       0.06935638 -0.1467524 -0.1990928 -0.08282432
000170 49 7d 2a be 28 f2 fc bd a4 de 8c bd 4a a0 a0 3e
       -0.16649355 -0.12350875 -0.06878403 0.3137229
000180 34 be b0 be 45 24 62 be 90 ae 92 3d 06 8d 69 be
       -0.34520113 -0.22084148 0.071622014 -0.22807702
000190 65 96 31 be f8 64 b3 3d 1d 3f 32 3e ac cc 09 be
       -0.17342527 0.08759493 0.17406888 -0.13456982
0001a0 42 78 91 3e 60 56 80 be 61 be 81 bd c8 b9 6e be
       0.28412062 -0.250659 -0.0633514 -0.23313057
0001b0 4f fb 89 3b aa ce 36 3c d2 a5 d6 be 7f 96 3d 3e
       0.0042108665 0.011157671 -0.41923386 0.18514441
0001c0 86 5f 8c be 6d a6 5c 3e 41 b1 3e be da 88 95 be
       -0.2741663 0.21547861 -0.18622304 -0.29205972
0001d0 55 0d c0 be cd 0c f6 3d 85 56 14 3e 5e 33 99 be
       -0.37510172 0.1201416 0.1448613 -0.29922003
0001e0 1a 1e 5b 3e 20 7e d4 be b6 68 75 bb f6 36 3f 3e
       0.21398202 -0.41502476 -0.0037446446 0.1867331
0001f0 92 bd df bc 25 bd 8f be 0e 7f 96 be 91 46 48 3d
       -0.027312074 -0.28073993 -0.2939381 0.048895422
000200 84 3a 1c 3e ec 21 4c 3e 57 78 a5 3e 53 86 4d be
       0.15256697 0.19934815 0.32318375 -0.20070772
000210 39 82 3a be c3 c3 05 3e 24 ee 82 bd 9d d0 e6 bd
       -0.18213739 0.13062958 -0.06393078 -0.112702586
000220 fe 9a 92 3d 9a 54 c7 3d 1f 1d 9d be 10 9b 23 be
       0.07158469 0.09732933 -0.3068628 -0.1597712
000230 5a 46 94 be 55 3f 76 be 51 df d8 be 38 9b c1 be
       -0.28959924 -0.24047597 -0.42357877 -0.37813735
000240 d5 3b 8a 3e 24 61 12 3d d8 9e d5 be 15 52 b0 3d
       0.26998773 0.03573717 -0.4172275 0.08609406
000250 20 b4 5d 3d 4c 15 2c be f5 8d 8f bd bc e7 4d 3e
       0.05412686 -0.16804999 -0.07009498 0.20107931
000260 5c a7 93 3e dc f8 13 3e cd e9 60 be 51 f6 05 3e
       0.28838623 0.14450401 -0.21964188 0.13082244
000270 cd 17 89 be 15 f6 3e be 99 41 a2 3c 4c 76 4e 3e
       -0.2677597 -0.1864856 0.01980667 0.20162314
000280 b0 bd aa 3d 49 14 e5 3d 6f 2f 7b bc b8 16 55 3e
       0.08336961 0.1118551 -0.015331133 0.20809448
000290 51 28 7c be 4b 52 dc 3d e4 df 12 3e 0d 63 0a 3e
       -0.24624754 0.10757884 0.1434322 0.13514347
0002a0 ec 07 9d 3d cf 95 55 be e1 5e 97 3e 2d 39 85 3d
       0.076675266 -0.20857929 0.29564574 0.06505046
0002b0 0b d2 07 be cf e0 51 be 38 b9 a3 be 82 9c 05 be
       -0.13263719 -0.20495914 -0.31977248 -0.13047984
0002c0 19 17 62 3b 33 f0 1c 3d 07 0c 15 be 5a fd 86 be
       0.003449863 0.03831501 -0.1455537 -0.26365167
0002d0 6a c2 34 bf 28 a7 47 3e 2f f2 51 3e c5 a0 13 3d
       -0.7060915 0.19497359 0.20502542 0.036041994
0002e0 d1 9f eb 3d 67 f8 bb be fd 77 0b 3e d4 2e e3 3d
       0.11505092 -0.36712953 0.1361999 0.11092916
0002f0 fb 4c 30 be b0 8a d4 bd 7a d6 64 be 11 2a 0c 3e
       -0.17216866 -0.10378015 -0.22347441 0.13687922
000300 91 93 85 3e bc d1 53 bd 8e 3f eb 3c ca e3 32 3e
       0.26089147 -0.05171369 0.028716829 0.17469707
000310 95 49 82 be d4 0c c1 3d cc a4 59 3d 18 45 61 3e
       -0.25446764 0.09426275 0.05313568 0.21999013
000320 89 3d 8b be ff 13 a3 3d 45 dc 88 be a6 76 19 3e
       -0.27195385 0.07962798 -0.26730552 0.14986667
000330 85 aa 87 be 10 58 f4 be 52 c4 cf bd 93 32 01 3e
       -0.26497284 -0.47723436 -0.10144867 0.12616949
000340 60 37 af 3d cb 2a 72 3e 77 a0 6c be 38 82 8e 3e
       0.08555484 0.23649137 -0.23108087 0.27833724
000350 1c 13 d6 bc 0c 25 b2 be b3 9e 80 3e fa 38 b3 be
       -0.026132159 -0.3479389 0.25121078 -0.35004407
000360 b8 f4 a6 be 47 bb a1 3d b1 5e 81 bc d7 99 83 3e
       -0.3260858 0.078970484 -0.015792223 0.25703308
000370 5f 0a 2a be b6 ad 56 3d a6 06 52 bd 9d 70 25 be
       -0.16605519 0.052411757 -0.05127587 -0.1615624
000380 ad 57 f6 3d 4b 22 cb be 71 f5 77 be 24 e5 00 3e
       0.120284416 -0.396746 -0.24214722 0.1258741
000390 1c 22 79 bd 5c 6f a4 be 0f d0 4b bd 21 06 e5 be
       -0.060823545 -0.3211621 -0.049758967 -0.44731238
0003a0 fa 0f ff be b6 86 c5 3d 72 52 33 be d4 13 21 be
       -0.49816877 0.09644835 -0.17511919 -0.1573022
0003b0 0a 87 16 3e f3 4a 09 be 1b a9 9c 3e fc 9e b1 be
       0.14699951 -0.13407497 0.30597767 -0.34691608
0003c0 e9 26 ba be f4 f5 1e be 75 b8 ff bd e2 3f db 3d
       -0.3635781 -0.15523511 -0.12486354 0.10705544
0003d0 f9 a8 8e be 36 91 7e bd 2a 71 77 be 2d b9 4f bd
       -0.2786329 -0.062150203 -0.24164262 -0.050713707
0003e0 4c 70 47 3d fa 62 a6 3d 38 86 b6 be 33 2e c2 3d
       0.04869108 0.08124347 -0.35649276 0.09481468
0003f0 70 5e 02 be 9f 1c a5 bd 96 30 20 be 12 32 bb be
       -0.12731338 -0.080621 -0.15643534 -0.36561638
