model_p.tflite (tflite, 475060 bytes, 6 tensors)

dense_2/bias f4 [10]
000000 18 bf b3 3c d0 e5 b6 bc b5 5e cf bd 4f c7 14 be
       0.021941707 -0.02232638 -0.10125486 -0.14529155
000010 95 8e 84 3d 32 2a f4 bc 7b 08 a3 bd 7d 3e 02 be
       0.06472508 -0.029805277 -0.07960602 -0.1271915
000020 89 76 93 3e 09 8a 3a 3d
       0.28801373 0.045541797

dense_1/bias f4 [128]
000000 c3 2c d0 3d 6a 1a 08 3e 8f c9 e9 bd 74 e4 8e bd
       0.101647876 0.13291326 -0.114153974 -0.06977168
000010 9b 5f 1c 3e af 86 a6 3d c4 08 7c bc 2a 62 19 3e
       0.15270846 0.081311576 -0.015382949 0.14978853
000020 97 2a 73 3e 77 43 98 bd dc dd f8 3d 76 b1 d5 3c
       0.23746715 -0.07434743 0.12151691 0.026085597
000030 7e 13 93 3d fa 62 29 3e 39 ae db bd da 02 7d 3c
       0.07181452 0.16541663 -0.1072659 0.015442574
000040 f0 19 86 3d 55 ff 96 3c e0 ab 71 bd a0 33 43 bc
       0.06547916 0.018432299 -0.059001803 -0.011914164
000050 c0 96 06 3e 44 98 04 3e 06 e4 58 3d 47 6d e4 3c
       0.13143444 0.1294871 0.052951835 0.027884139
000060 72 3e 19 be 6d ab a1 3d 91 24 70 3e db 8e fd 3d
       -0.14965227 0.07894025 0.23451449 0.12380763
000070 1a b0 1e 3e 92 1d f4 bd 93 fd fe bd ee b7 9e 3d
       0.15496865 -0.119197026 -0.12450709 0.077499256
000080 87 30 1f 3e dd 5b eb bd d1 80 19 3c 8d fd d2 3c
       0.15545855 -0.11492131 0.009369091 0.025755668
000090 ce 45 ae bc 64 1f 16 3d 01 ee 69 3e a7 1a 90 3d
       -0.02127352 0.03665103 0.22844698 0.070363335
0000a0 43 1d 11 3d 28 90 3f bd a4 ab 0a bb 18 61 b8 bd
       0.035428297 -0.046768337 -0.0021159435 -0.09002894
0000b0 54 62 0d 3e e8 ef 59 bd 43 dd e7 3d 68 62 aa bd
       0.1380704 -0.053207308 0.11321499 -0.08319551
0000c0 75 88 8d 3c 8b 08 aa 3d cb 09 c3 bd 28 22 05 3e
       0.017276982 0.08302411 -0.09523352 0.13001311
0000d0 f3 e7 dc bd cd a9 2b be f5 d6 14 bd 4c e8 fd 3d
       -0.10786428 -0.16763993 -0.03633781 0.12397823
0000e0 85 c8 ef 3c ca 5b 09 be 18 d8 f0 bd 45 84 95 3d
       0.02927042 -0.13413921 -0.117599666 0.07300619
0000f0 b2 73 cd 3d 9d 58 24 3d 9f 13 e1 bd d0 e3 89 3c
       0.10031833 0.04012357 -0.109900706 0.016832262
000100 4c 35 5d 3e dc 26 f0 bd 51 ed 1d 3e 1c 66 d3 3c
       0.21602362 -0.11726162 0.1542256 0.025805525
000110 82 13 3e bd 3f f5 77 bd 0e 4b 17 bd 72 6e ea 3d
       -0.046405323 -0.06053662 -0.036936812 0.11446847
000120 df e6 8c 3e 25 a4 35 3e 99 02 d0 3d 9b aa f4 3c
       0.2751989 0.17738397 0.101567455 0.029866507
000130 a8 e3 33 3d 0d 61 c6 3d 07 34 67 bd 67 18 a5 3d
       0.04391828 0.0968648 -0.0564461 0.08061295
000140 8c f5 52 3d ff 5f 0d 3e c5 4c 3a 3d fe 28 9a 3d
       0.051503703 0.13806151 0.04548337 0.0752735
000150 df 01 30 be 80 ee c5 bd cf 12 f4 3c 72 c4 8c 3b
       -0.17188214 -0.09664631 0.029794125 0.004295879
000160 38 40 f4 bd cd 79 50 3d bf 57 8b 3d 8a 2b 06 bc
       -0.11926311 0.05089741 0.068038456 -0.008189091
000170 c2 ef 3a bd 95 dc 9f 3d b3 d0 9b 3c 6e fe 7d 3d
       -0.045638807 0.078057446 0.019020414 0.06201022
000180 4d 7b fc bd 45 0a 80 3c 74 f7 e2 3c e6 ff 00 3e
       -0.12328205 0.015629897 0.027705885 0.12597618
000190 9d 1b 40 3c fc a5 65 3d 71 8a 1b bd a7 bd 64 3d
       0.0117253335 0.0560665 -0.037973825 0.05584493
0001a0 83 fe 21 be c6 a5 08 bc 49 f4 5c 3e e6 4d 83 bc
       -0.15819745 -0.008340305 0.21577562 -0.016028356
0001b0 60 c2 3a 3e 19 28 e1 3d 17 ff 84 bd d2 50 01 3c
       0.1823821 0.10993976 -0.06493967 0.007892804
0001c0 e8 0c 39 3d 1d 02 d5 bc 98 e0 ba 3d de c1 fb bd
       0.045178324 -0.026001984 0.09124869 -0.122928366
0001d0 cd 3a 9e bd fc 69 44 3e c5 49 76 bc 07 27 c8 bc
       -0.07726059 0.19181055 -0.015032236 -0.024432672
0001e0 6f 14 02 3e ea 9a 04 3e ea d9 25 3d f8 88 5d 3c
       0.12703107 0.1294972 0.040491022 0.013521425
0001f0 b0 f4 26 3e 9b e5 ce 3d c6 8b 05 be 48 54 fc 3c
       0.16304278 0.101023875 -0.130416 0.030801907

dense/bias f4 [128]
000000 2c 7e 2c 3d dd a4 e8 3d f3 15 9d 3c 5f b1 0d 3e
       0.042112514 0.1135957 0.019175505 0.13837193
000010 f2 d9 93 bd 70 9c a4 3d 6f 82 86 bb c6 bf be 3c
       -0.07219304 0.080376506 -0.0041049044 0.023284804
000020 a3 00 ab bc 38 32 05 be fd 69 8e 3c a8 5b 26 3d
       -0.020874327 -0.13007438 0.017384524 0.040614754
000030 f4 9e cc bd 65 1a a5 3d b4 c0 b0 3c 72 e2 06 3e
       -0.099912554 0.08061675 0.021576263 0.1317232
000040 ad 23 42 bc ae cb fd 3d a7 7a 91 bd f2 c4 f7 bc
       -0.011849326 0.123923644 -0.07103472 -0.030245278
000050 9d 26 a2 3d a1 95 3b bd 2a de ac 3c a9 5f b5 3d
       0.07917521 -0.045796994 0.02110203 0.08856136
000060 98 e5 53 bd 1a bc 16 bc 02 b0 d8 3c 55 f2 68 3d
       -0.05173263 -0.00920012 0.026451115 0.05687173
000070 be 65 0c 3d f9 ee 30 be f5 6c e9 3b 16 5d a4 3d
       0.034276716 -0.17278661 0.0071235844 0.08025567
000080 a3 25 6c bd ff 79 28 be ff c0 f3 3b fc ed a6 3d
       -0.05765308 -0.16452788 0.0074387784 0.08150861
000090 04 06 db bc 7b cd 80 3c 48 1b dd bd 75 a1 4b bc
       -0.026736267 0.01572298 -0.10796219 -0.012428631
0000a0 41 e7 44 bc d9 a4 ed 3c df 84 77 bd 8f 61 5f 3d
       -0.012018026 0.02900927 -0.06042945 0.0545364
0000b0 1e 50 a8 3d fc a0 2d bd 51 81 86 3d e8 45 d5 bd
       0.08218406 -0.042389855 0.06567634 -0.10413724
0000c0 16 1f 7c bc 78 74 72 bd 75 5f 02 be 1c 4e eb bd
       -0.015388271 -0.059193105 -0.12731726 -0.114895076
0000d0 73 61 0b 3e 98 6e 50 bc 75 55 8e 3c 13 6d 7f 3c
       0.13611393 -0.01272168 0.017374733 0.01558997
0000e0 aa 63 1a 3d ce b8 91 3d 13 9a 9a 3d 83 43 b3 3d
       0.037692703 0.07115327 0.075489186 0.08753111
0000f0 8b 6f 30 3d e6 e2 3b 3c fe b3 50 3d 51 de 5f 3d
       0.043075126 0.011467671 0.050952904 0.054655377
000100 30 b3 d2 3d 26 dc d9 bc 5a d1 b0 bc 1b 74 c9 3c
       0.102880836 -0.026594233 -0.021584202 0.024591496
000110 f2 e4 c9 3d 4a 61 2c 3d 16 aa 21 3c 5b 81 0b 3c
       0.09858121 0.04208497 0.009867212 0.0085147275
000120 01 e5 97 bd de a1 ce 3d 39 86 0a 3e d3 0e ce bd
       -0.07416726 0.100894675 0.13527764 -0.10061421
000130 11 97 a6 bd 57 bd 97 bc fb 9f 03 be 52 5c 99 bd
       -0.081342824 -0.018522901 -0.12853996 -0.07488312
000140 a9 37 6c 3d 29 fc 1c 3d a6 71 44 bd 34 e2 80 3b
       0.05767027 0.038326416 -0.047959946 0.0039332155
000150 df bb ec 3c f6 e7 a2 bc ad 2d 2d bd dc fe 1f 3d
       0.028898178 -0.019885998 -0.042279888 0.039061412
000160 14 75 9e 3d bf ed ca bd 9f f6 c2 3b d3 83 00 3d
       0.07737175 -0.09908628 0.0059498097 0.031375717
000170 51 4c e7 3c 47 4f 8a 3d a8 52 55 be f9 a2 aa 3b
       0.028234633 0.06753402 -0.20832312 0.005207416
000180 b9 37 19 be 18 8d 17 bd 35 0d 2b 3e cc f5 34 bd
       -0.14962663 -0.03699979 0.16704257 -0.044179723
000190 19 c1 9b bd 3b a7 a6 3b af b9 9e bc a1 2a 4c 3d
       -0.0760519 0.0050858534 -0.01937565 0.04984534
0001a0 06 cf 86 3b 3c 82 19 3d 90 ac 0c bd 10 4c 94 3d
       0.0041140346 0.037477717 -0.034344256 0.0724107
0001b0 ba c2 18 b9 59 43 3d 3d cf a9 4d be d7 60 eb 3d
       -0.00014568391 0.046206806 -0.20084308 0.1149308
0001c0 3f 32 e8 bd 59 5f fd b9 d2 e9 08 3e 44 f8 5e 3d
       -0.11337709 -0.0004832696 0.13370445 0.054435983
0001d0 74 a8 8d 3c 15 ff 1e bd 58 f8 b6 bd 40 ad 9a bd
       0.017292239 -0.038817484 -0.089340866 -0.07552576
0001e0 58 ed 76 bd 17 c4 15 be 4f a3 09 3e 40 85 69 bc
       -0.060284942 -0.14625584 0.13441204 -0.014252961
0001f0 e1 42 fa bc 8d 5a 9a bc dd 0a a3 bd ee 76 9e bd
       -0.030549468 -0.018842006 -0.079610564 -0.07737528

sequential/dense/MatMul f4 [128, 784]
000000 f8 78 04 bc de 29 58 3d bd 7d 44 bd 70 e4 e7 bc
       -0.008085482 0.052774303 -0.047971476 -0.02830717
000010 2e 01 46 3d 54 2a 0d 3d 32 aa 48 3d 84 42 90 bd
       0.04834097 0.034464195 0.048990436 -0.07043937
000020 0e f5 7b 3d 34 d8 af bc d5 5b a1 3d 76 33 40 bd
       0.061513 -0.021465398 0.07878844 -0.046924077
000030 0c 43 eb 3c b0 74 98 bb 8a cc 61 3d 56 5f 56 3d
       0.028718494 -0.004652582 0.055126704 0.052337013
000040 65 80 a2 bd f0 e6 2c bc ec 5e 8c 3c 6c 04 8e 3c
       -0.079346456 -0.010553107 0.017135106 0.017336093
000050 38 58 17 3c 3e 0d d7 bc a6 cb 5b 3d f6 9c 63 3d
       0.009237342 -0.026251432 0.05366101 0.05556961
000060 6f db 9f bd 12 b2 79 bd 8a 64 53 3d 01 39 83 3d
       -0.078055255 -0.060960837 0.051609553 0.06407357
000070 4a e4 3f 3d 04 7d 10 3d f4 a0 26 3d a1 ca 92 3d
       0.046848573 0.035275474 0.04068084 0.07167555
000080 3e ff 3b bd 4b 77 a1 bd 70 c0 3e bd 08 23 c0 3c
       -0.045897715 -0.078840815 -0.04657024 0.023454204
000090 40 0f 01 3d fc 49 a3 3c 80 e2 72 3b ff 45 a2 3d
       0.031508684 0.01993274 0.0037061274 0.07923507
0000a0 a6 c3 a8 3c 39 8a 33 bd e8 ea d1 3d e1 71 7a 3d
       0.020601105 -0.04383299 0.10249883 0.06114376
0000b0 8b 04 d3 bc 74 49 17 bd 2f 25 4c 3d e8 f2 f0 3c
       -0.025759002 -0.036935285 0.04984015 0.029412702
0000c0 c1 e6 84 bd fc 1d bc 3c 7f c1 9b 3d dc 15 8e 3c
       -0.06489325 0.022963516 0.07605266 0.017344408
0000d0 3c 28 1e 3d dd 59 a3 bd 3f a9 3f bd d0 cb 12 bc
       0.03861259 -0.079761244 -0.046792265 -0.0089597255
0000e0 8f 8d 96 3d 80 c7 9d bb 80 7d 00 3a c0 3f fa bc
       0.07351219 -0.004815042 0.00049015135 -0.030547976
0000f0 e6 ff 61 3d 80 7a 5a bd 48 66 41 bd 7a 96 36 3d
       0.055175684 -0.05333948 -0.047216684 0.0445771
000100 6d 65 0b bd c3 6f da bc 71 7f e3 bd 21 f3 c7 bd
       -0.034032274 -0.02666462 -0.11108292 -0.0976317
000110 39 e9 33 bd 82 11 86 bd 79 01 6b be b6 9a 19 be
       -0.04392359 -0.06546308 -0.2294978 -0.15000424
000120 d6 b6 ce bd 3b 70 7b bd ac 01 a1 3d 6d c5 97 bc
       -0.10093467 -0.06138633 0.07861647 -0.018526757
000130 e0 f2 eb bd 88 e9 2d bd 8d 8c 2a bd 3b 32 8d bb
       -0.11520934 -0.04245904 -0.041637946 -0.0043089665
000140 e2 10 c7 bd a6 1d 55 bc 20 38 ea 3b 45 ba 61 bd
       -0.09720017 -0.013007557 0.007147804 -0.05510928
000150 77 83 25 bd b6 3b 34 3d f5 68 89 3d 87 c3 81 3d
       -0.040408578 0.044002257 0.06709472 0.06336122
000160 b6 4f c1 3c aa e3 4c bd 7c 33 de 3b 45 95 52 3d
       0.02359758 -0.050021805 0.0067810398 0.051411886
000170 08 dc 79 bd 47 73 07 be 05 33 12 be 5b b4 b3 b8
       -0.061000854 -0.13227569 -0.14277275 -8.568979e-05
000180 5b 84 db bb f1 e5 9d 3d de df 2b 3e af 5e 50 3c
       -0.0066991276 0.077098735 0.16784617 0.012717887
000190 68 8e c3 bc 15 07 c5 ba 74 ff 3d 3e 24 5e 24 3d
       -0.023871616 -0.0015032018 0.18554479 0.040128842
0001a0 4b 49 c1 3c aa ba 14 3d 43 b2 bf 3d 58 fe 90 3c
       0.02359452 0.03631083 0.093601726 0.017699406
0001b0 ab ec 06 be af 21 07 be 75 01 8c bb 88 d7 f9 3c
       -0.13176219 -0.13196443 -0.0042726346 0.030498281
0001c0 18 6a 32 3c 80 06 6a 3d 4b 8e b8 3c b6 55 ed 3c
       0.0108895525 0.057135105 0.022528788 0.028971534
0001d0 d2 d1 ba 3c 4b 01 87 bd 33 76 d0 bc 79 88 01 be
       0.022805128 -0.065920435 -0.025446987 -0.12649716
0001e0 4c 21 05 bd 8e 72 8c be 36 ba 81 be 75 43 75 bd
       -0.032502457 -0.27431148 -0.2533738 -0.059878785
0001f0 c4 7f a6 3c 15 ea f1 3c 26 11 6b 3c 22 c9 0d 3e
       0.020324595 0.029530564 0.01434735 0.13846257
000200 06 d4 a6 bd 0e ea 37 be d3 36 28 bd b7 c5 e5 bd
       -0.08145909 -0.17960379 -0.04106791 -0.11219352
000210 fc f6 6d bb 8d 45 7c 3b e1 e3 c4 3d 45 68 01 3e
       -0.0036310544 0.0038493604 0.09613777 0.12637432
000220 a3 1f a9 bd 86 78 1a bd e6 d9 68 3d 41 a5 00 be
       -0.08257987 -0.037712596 0.05684843 -0.1256304
000230 86 3b 3b 3d c1 2f 82 3d 57 f8 c7 3d 45 a0 94 bd
       0.045711063 0.063567646 0.09764164 -0.072571315
000240 21 d8 30 be 29 49 3b bd 67 f7 20 3d f6 a2 8b bd
       -0.17269947 -0.045724068 0.03929844 -0.06818192
000250 75 c2 00 3d 9c 35 81 bd ba a3 14 3d ba a6 5c bd
       0.03143545 -0.06309053 0.036288954 -0.05386994
000260 e6 2a ef 3c 5c cb 57 3d 4a 22 a2 3d 7f e1 8e 3b
       0.02919526 0.052684173 0.07916696 0.0043603773
000270 be 07 94 bd 94 24 c5 3d 04 64 1b be 7d 26 63 bd
       -0.07228039 0.09626117 -0.15174872 -0.055456627
000280 56 3c 39 be fc db 73 bd d2 c6 06 be 79 5f 05 be
       -0.18089423 -0.059535965 -0.13161781 -0.13024701
000290 42 3e 6a be 50 fb c1 bd 17 8e b1 bd 4b 1a d7 bd
       -0.22875312 -0.09471762 -0.086696796 -0.10503062
0002a0 53 ea 00 bd d5 bf 5c bd 56 48 af 3d 02 24 31 3c
       -0.03147347 -0.053893883 0.08558719 0.010811808
0002b0 1b ab cc bc 08 03 ef 3a cf bd 94 bc f0 0c 2f bd
       -0.024983933 0.0018235156 -0.018156914 -0.042736948
0002c0 6a 82 9c bd e0 61 ee bd 3a a7 27 bd 80 8b 0c 3d
       -0.07642062 -0.11639762 -0.040930964 0.034312725
0002d0 be 4a e2 3d eb fd 29 3d 7f 82 22 3d b1 2e 66 3c
       0.11049412 0.04150192 0.039675232 0.014049218
0002e0 8d c0 54 bd a5 8d 6d bc 30 f1 c8 bd 9b 97 8e 3c
       -0.051941443 -0.014499103 -0.09811628 0.017406275
0002f0 40 04 38 3d ad 6c 34 3d e7 cd 58 3d 6d eb ef 3d
       0.044925928 0.044048954 0.05293074 0.11714826
000300 7d e8 9e bd a0 03 c1 3d 61 00 15 3e af 82 8f 3b
       -0.07759187 0.094245195 0.14550926 0.0043795924
000310 98 ff e6 3c 21 2d 82 3d 28 21 16 3c 76 20 1e 3d
       0.028198048 0.06356264 0.0091631785 0.038605176
000320 82 85 9e 3d dd 2c 81 3c 59 67 76 3d aa 1a 06 3d
       0.07740308 0.015768463 0.060157154 0.032740273
000330 b7 98 29 be f9 48 e2 bd 7b d1 29 3e ff b0 6e 3d
       -0.16562162 -0.11049075 0.16583817 0.058274265
000340 55 b1 e1 3d 20 0e a7 3d 68 8a 1a be f2 ce 40 be
       0.110201515 0.08156991 -0.1509186 -0.18828943
000350 85 25 45 be 91 3b f8 bd f5 a7 cf bd 40 53 6e bc
       -0.19252594 -0.121207364 -0.10139457 -0.0145462155
000360 a4 28 9e 3d 4e ad dc 3c 0f c3 1d 3d f3 0d 63 3e
       0.07722595 0.026938107 0.0385161 0.2217329
000370 98 c0 e9 3d 30 ba 0d bd 45 b1 43 3e 95 8f 13 bd
       0.114136875 -0.03460139 0.19110592 -0.036025602
000380 52 46 fa bc 45 f2 48 3d 4a af 0f 3e dc 1f 54 3e
       -0.03055111 0.04905917 0.14031711 0.20715278
000390 cb 46 32 bd 23 52 db bc 12 90 d4 3c 18 cb d1 bd
       -0.043524545 -0.026772564 0.025947604 -0.10243815
0003a0 bd a0 e9 bd da f7 b7 bd c1 ea 5e bc 5f 72 84 3d
       -0.114076115 -0.08982821 -0.013605774 0.06467127
0003b0 da 7e d0 3c 28 21 e3 bc 8e f4 8d bd 02 99 2a bd
       0.025451113 -0.027725771 -0.06931411 -0.041649826
0003c0 fd b2 23 be 0b 7d 49 3c 9c 21 97 3d cb 3d e2 3d
       -0.15986247 0.012297879 0.07379457 0.11046942
0003d0 61 42 b2 3d 4d de 2c 3d 9b f4 f8 3d d7 8b 12 3e
       0.08704067 0.04220419 0.1215603 0.14311157
0003e0 a3 71 82 3e c5 c9 77 3e 95 30 87 3e 12 ac 05 3d
       0.25477323 0.24198063 0.26404253 0.032634802
0003f0 aa e2 1f 3d c1 c0 86 3e c8 a5 4c 3d 9d 38 52 3d
       0.039034523 0.26318935 0.04996279 0.051323522

sequential/dense_1/MatMul f4 [128, 128]
000000 b1 cb 3c 3d a8 38 9f 3d 26 db 8a bd 76 5a 8c 3d
       0.046092693 0.07774478 -0.067800805 0.068531916
000010 a5 2a 4f 3d fd 9d 3b be 31 b3 83 be da 81 5b bd
       0.05057778 -0.18321986 -0.2572265 -0.053590633
000020 a4 f9 20 3d 3f 59 03 3e d0 2c fa bc e6 32 13 be
       0.039300576 0.12827013 -0.030538946 -0.14374885
000030 e8 b2 d1 bd 78 67 01 3e 8b f1 0f 3e 5f 19 db bd
       -0.10239202 0.12637126 0.14056985 -0.106981985
000040 0f ed 9c bc ba 2f 99 be f7 9a 52 3b 66 5b 35 3e
       -0.019156007 -0.29919225 0.0032135823 0.17710647
000050 b7 93 82 be 69 21 aa 3d 1a 53 ec 3b 04 29 0f be
       -0.25503322 0.08307154 0.007212055 -0.1398049
000060 33 97 18 bd de 97 ca 3c 7a 5b 97 bd 3f ba a7 3c
       -0.03725357 0.024730619 -0.07390495 0.020474551
000070 45 5a b4 bc a6 01 16 3d 83 52 d3 bd 18 d2 23 3d
       -0.0220157 0.036622666 -0.10318472 0.039995283
000080 17 8c 1f 3b 7c 22 1e 3e 49 be 54 be 51 02 e7 3b
       0.0024344975 0.15442842 -0.20775713 0.0070498367
000090 d5 6a f7 bd db 13 b3 3c 89 79 fb 3d a8 38 3e be
       -0.120809235 0.021860054 0.1227904 -0.185763
0000a0 93 76 9f 3c 2e eb cb bc 84 32 8e 3c 8a d3 b1 be
       0.01946572 -0.024892416 0.017358072 -0.34731704
0000b0 2b 5c f9 bc 5b d8 c2 bd c0 c4 9a be 8e 1b da bb
       -0.030439457 -0.09513923 -0.30228233 -0.006656117
0000c0 82 84 88 3d 69 17 33 bd e1 7f 4d 3c 8c da 25 3e
       0.06665899 -0.043723498 0.012542696 0.1619665
0000d0 5a 1b e9 bd d4 51 3a 3c f9 5e 16 bd ce 08 6b be
       -0.1138217 0.011372048 -0.036711667 -0.22952577
0000e0 b2 ec fa 3d 26 8f 35 3d 57 58 80 be 89 c0 2c be
       0.12252177 0.04432597 -0.25067398 -0.16870321
0000f0 c8 24 e7 bd 52 07 f8 bd 9b b9 24 bd 71 56 78 be
       -0.11286312 -0.12110771 -0.04021607 -0.24251725
000100 d1 f0 1c be f7 3b 9d bd 04 93 cf 3d 32 63 4b bb
       -0.15326239 -0.07677453 0.10135463 -0.0031034467
000110 ae b3 8a be ff ad 5a 3d ad 8c bf 3e a4 c0 9e 3d
       -0.2709021 0.05338859 0.37412015 0.07751587
000120 83 19 80 3d 3d a8 78 bd 1b a4 21 be 3a df fb 3d
       0.06254866 -0.06070732 -0.15785258 0.122984365
000130 5d 96 d7 bd c5 00 05 3d 34 11 9b bd 59 dc b3 3d
       -0.105267264 0.032471437 -0.075716406 0.08782262
000140 cb d3 95 bd 03 54 4a bc 92 f2 3b 3e 61 a6 84 be
       -0.07315787 -0.0123491315 0.18354252 -0.25908187
000150 bf 35 04 3c d7 e1 55 3e 25 2f 95 be 0c b7 49 bd
       0.008069455 0.20886932 -0.2913753 -0.049246833
000160 f3 cf 6d be 41 02 1e bc ee 0d b4 bd 9f 4e d6 3d
       -0.23223858 -0.009644092 -0.087917194 0.104642145
000170 af 16 a1 bb ab 87 20 be 6d 1d 05 3e 08 a2 b6 3c
       -0.004916034 -0.15676753 0.12999506 0.02229406
000180 ab 75 57 3d 55 cd 23 3e cc dc 8d be 58 b3 d9 bd
       0.05260245 0.15996297 -0.27707517 -0.1062991
000190 38 56 fe 3d 91 cf 55 bd 80 5e df 3d 81 6e 93 be
       0.12418789 -0.052199904 0.10906696 -0.28795245
0001a0 fe 48 64 be 71 01 4d be 4f ea c7 bd a1 26 89 be
       -0.2229347 -0.20020081 -0.09761488 -0.26787284
0001b0 ca 56 9b bd 2c 96 64 bc 5d 0a 75 3d f6 0b e1 bd
       -0.07584913 -0.013951819 0.059824336 -0.109886095
0001c0 84 2d 0d 3e a0 95 10 3d 1a b4 cc be dd 77 d1 be
       0.13786894 0.035298944 -0.39981157 -0.4091176
0001d0 7d 3a 1b 3b 9f 42 c2 3c 2d a7 27 3e ab 3c 4f be
       0.0023685985 0.023713408 0.16372366 -0.20237987
0001e0 6f 22 9e bd 34 34 40 bd b8 19 1c be bb 2e 19 be
       -0.077214114 -0.046924785 -0.15244186 -0.14959233
0001f0 76 37 92 3d a0 ab ab 3d db 1b 57 3e 6d 99 a0 be
       0.071394846 0.08382344 0.2100672 -0.31367055
000200 8c 1e 93 bc a1 70 85 be df 4f fe 3c 46 d3 10 be
       -0.017958902 -0.26062492 0.031043945 -0.14143094
000210 d5 05 52 be c6 b7 c5 3d 1d c8 a2 bd 60 fc 4f 3e
       -0.20510037 0.096541926 -0.07948325 0.20311117
000220 10 dc 8e be 40 97 fe 3d 60 14 76 be 1e aa 67 3c
       -0.2790227 0.124311924 -0.2403121 0.01413968
000230 14 3b 74 bd 83 6e dd 3d e8 5a 63 bd 02 6c 63 3e
       -0.059626654 0.10812094 -0.055506617 0.2220917
000240 c7 f1 df 3d e4 f6 66 bd 2e 56 00 bd 5e 86 16 be
       0.10934787 -0.056387797 -0.031332187 -0.14699695
000250 f4 82 c3 be 4e b5 f7 bd 02 8b 85 3e a0 ca ae be
       -0.38185847 -0.12095128 0.26082617 -0.34138966
000260 75 9c be be 3b 5a 02 3e 4c 29 96 bd af 16 8a bd
       -0.37228742 0.12729733 -0.073320955 -0.06742608
000270 38 4e 5f be a2 cc 30 be d9 3b 0a 3e 4f ce 05 3e
       -0.21807182 -0.17265561 0.13499393 0.13066982
000280 a3 1c 4f 3e e6 c8 0f bd 35 b3 3d bd 36 58 a1 bd
       0.20225768 -0.0351037 -0.046313483 -0.07878153
000290 93 4a 3b 3d e7 2b 4f 3e 25 f7 dc 3d ef 12 7d 3d
       0.045725416 0.20231591 0.107893266 0.061785635
0002a0 90 24 c4 3c 26 65 d8 3d 4f 02 62 3e 53 70 34 bd
       0.023943216 0.105661675 0.22071193 -0.044052433
0002b0 7e 6e 02 39 26 11 3e 3e 2e e7 2e 3e 41 93 a5 bd
       0.00012438928 0.18561229 0.17080376 -0.08084727
0002c0 11 29 8f be 0c 05 1a 3d 69 cf 55 bd 03 3e 34 bd
       -0.2796102 0.03760247 -0.052199755 -0.04400445
0002d0 26 4d 64 3e 8e e3 09 3d 14 ad 9d 3d 0f d0 21 3e
       0.22295055 0.03366428 0.07699028 0.15802024
0002e0 7d a1 61 3b 20 2d de 3c 1d a2 71 3e e5 2c e9 3d
       0.003442853 0.027121127 0.23596998 0.11385516
0002f0 7e 26 70 3d 83 d0 47 be 4b cb 8e bd 9b f3 1d 3e
       0.05863046 -0.19513135 -0.06972369 0.1542496
000300 9a e9 9d 3d c7 c1 6b 3e 5e f3 e9 bc b2 59 ec be
       0.077105716 0.23023139 -0.02855843 -0.46162182
000310 5e d2 6d 3b 81 88 cc 3d 66 15 f9 bd 2a e3 00 3e
       0.0036288719 0.099869736 -0.121622846 0.12586656
000320 ed 33 f3 be fc 87 48 3d a2 e1 3e be 23 93 1a bb
       -0.47500554 0.04895781 -0.1864076 -0.0023586235
000330 c8 09 48 be 9f 2e cb 3d 5f cf ae bd cf 0a dc bd
       -0.19534981 0.09921002 -0.08535647 -0.10744249
000340 12 3a 57 be de e2 29 3c c4 19 69 bd 12 cd 2d be
       -0.21018246 0.010369031 -0.056909338 -0.1697276
000350 db 95 41 ba c0 45 36 3d 86 73 8b 3d 5c 73 c3 3b
       -0.0007384696 0.044500113 0.06809144 0.0059646796
000360 d9 09 16 bd c9 81 ac 3b 5f d1 86 3d 36 94 e9 3c
       -0.036630485 0.005264495 0.06582903 0.028513055
000370 98 6d fa 3c 25 bf 45 be 9d 80 06 be 58 73 d8 bd
       0.030569836 -0.19311197 -0.13135 -0.10568875
000380 b4 6c 72 bd e8 f3 c7 bd 2d b9 69 be 83 cb 6d be
       -0.0591857 -0.09763318 -0.22824545 -0.23222165
000390 d6 fa 71 3c ae 31 dc 3d 31 36 c4 3c c0 2d b8 be
       0.014769277 0.10751663 0.023951622 -0.35972404
0003a0 27 d1 b2 bd 51 aa 13 bc 78 cc 74 3e 87 19 39 be
       -0.08731299 -0.009012775 0.23906124 -0.18076144
0003b0 d7 ed 8a be ee d3 05 be 81 e9 5f be 04 14 0d be
       -0.27134582 -0.13069126 -0.21866418 -0.13777167
0003c0 61 23 41 be b2 5a 1e 3b ab dc 7d 3e da 45 5f 3d
       -0.18861152 0.0024162945 0.2479121 0.054509975
0003d0 5c e1 fe 3d 2c 7c 61 be f2 40 dc bd ce df f3 bd
       0.12445328 -0.22020024 -0.10754575 -0.11907922
0003e0 7c bf 42 3d 1f 0e c4 3b a0 2b 51 3e aa ad 76 3d
       0.047545895 0.0059831287 0.20426798 0.060224213
0003f0 42 f7 55 3e ef e0 23 3e d7 12 d9 3d 3e 6c b2 3c
       0.20895103 0.16003774 0.105992965 0.02178013

sequential/dense_2/MatMul f4 [10, 128]
000000 78 af 8c 3e bd 77 b1 be cb a8 bd bd 94 fa 39 be
       0.27477622 -0.34661666 -0.0926071 -0.18161994
000010 fe ee 92 be 89 6e 31 3e 5a 58 5b be b3 3b c4 3d
       -0.28697962 0.17327322 -0.21420422 0.09581699
000020 8e 4b 03 bd 9d ca 22 3d a3 83 0d 3e 7b 24 2d be
       -0.032054476 0.03974401 0.13819747 -0.16908447
000030 12 1b 73 3e 0c 41 88 3d 80 13 7d be 38 cf 82 be
       0.23740795 0.06653032 -0.2471447 -0.2554872
000040 68 8b af bd 3b 4d 0d be bb 72 0c be 5f a9 3f bd
       -0.085715115 -0.13798992 -0.13715641 -0.046792384
000050 e1 7a 1b be bc ef 84 bd 34 18 0a 3e ae 71 90 be
       -0.15183593 -0.06491038 0.13485795 -0.2821173
000060 e8 1e 1c be 43 2c 8b 3d e4 d8 20 3e dd c4 15 bc
       -0.15246165 0.06795552 0.15707737 -0.009141174
000070 cc 66 d8 be 23 d4 5d 3d 77 02 71 3e 9a 1f 04 be
       -0.42265928 0.054157387 0.23536097 -0.1290268
000080 16 c6 91 bd 5c 1d ac be 1c 6b 2e 3e 81 01 85 3e
       -0.0711786 -0.3361615 0.17033046 0.2597771
000090 2f f1 a1 be 59 a5 ec 3c 17 15 3e bd 10 0d 29 be
       -0.3162932 0.028887438 -0.04640683 -0.16508889
0000a0 e4 58 48 3e fc fa 08 be 9d 7e b3 be fd 6c 50 3d
       0.19565159 -0.13376993 -0.35057536 0.05088519
0000b0 bc 56 e7 3c d2 ad 03 be d5 11 21 be 43 c2 85 3e
       0.0282396 -0.12859276 -0.15729459 0.26124772
0000c0 53 5f 79 3e 1d 1a 34 3e d3 38 8b be de 47 c8 3d
       0.2435277 0.17588086 -0.2719179 0.097793326
0000d0 7e b3 5e be 22 8b 99 be 95 9a 7a be e2 05 05 3e
       -0.21748158 -0.29988962 -0.24473031 0.12990525
0000e0 b4 0e 90 3d 04 db 1e be b9 ac 48 3e 2e e0 52 3e
       0.070340544 -0.15513235 0.19597138 0.2059333
0000f0 4a 98 42 3e 10 de 85 3d df d8 e0 bd ee 1e 88 3c
       0.19003406 0.06536496 -0.10978865 0.01661631
000100 7c b9 22 be 80 e3 c8 3c e0 75 bf bd 19 93 7d be
       -0.15891069 0.024522543 -0.09348655 -0.24763145
000110 68 93 c8 be 90 00 10 3d e6 3b da be 85 f8 31 3c
       -0.39174962 0.035156786 -0.42623824 0.010862474
000120 a4 db ba bd 12 35 4b be 1d 30 ee be 6c 75 1f 3e
       -0.091239244 -0.19844463 -0.46521083 0.15572137
000130 2b 12 5e 3d c3 9b 79 3e 6e 5b df be 6c e8 10 3e
       0.054216545 0.24375825 -0.43624443 0.14151162
000140 ce de 9c be 2f 39 0d be e4 41 83 bd 0e 7e 2b be
       -0.30638736 -0.13791345 -0.06409052 -0.16747305
000150 00 44 aa 3d f4 ab a6 3c 22 50 b0 bd 5b b0 c3 be
       0.08313751 0.020345666 -0.08609034 -0.38220486
000160 96 1c a2 be 96 61 28 3e 4a 7d 1f 3e 4b 4e 84 be
       -0.31662434 0.16443476 0.15575138 -0.25840983
000170 4e ba 81 be 84 7e 44 be 8b ed 1a be 9c b8 3b 3e
       -0.25337452 -0.19188887 -0.15129678 0.18332142
000180 d7 99 38 bd 8b 77 8a 3d 01 04 bb be 61 16 ea be
       -0.045068588 0.06761082 -0.36526492 -0.457202
000190 0b c5 97 be 9b 7e 01 3e ec 21 23 be f9 cb ca be
       -0.2964252 0.12645952 -0.15930909 -0.39608744
0001a0 d2 6a c2 be 98 82 88 be 90 01 7a 3e 1b eb ac bd
       -0.37972122 -0.26662135 0.24414659 -0.0844328
0001b0 c0 3d ab 3b 3a 3e dd bd 40 1b 73 3b 7c 3c 3c be
       0.005225867 -0.108028844 0.00370951 -0.18382448
0001c0 f2 56 e4 3d a7 76 c7 be 39 9d 87 3e c0 db a8 bd
       0.11149396 -0.38957712 0.2648714 -0.08245039
0001d0 6e 85 69 be cc ac c1 3d 80 2d 57 3e 90 86 95 be
       -0.22804806 0.094567865 0.2101345 -0.29204226
0001e0 c2 cc 09 3e ab 86 c8 3d ea c5 58 bc 5c 03 97 bc
       0.13457015 0.09791311 -0.01323078 -0.018434219
0001f0 a2 fb 42 be 11 23 82 3d 97 7d 52 3d 3b 9d 09 be
       -0.19041303 0.06354345 0.051389303 -0.13438885
000200 15 9c c5 be 44 6e 5c be ec 8c 2a 3e 30 eb c1 be
       -0.38595644 -0.21526438 0.1665532 -0.37874746
000210 52 2d 1a 3e 9a 34 c4 be ee 71 17 bf 38 f4 fa be
       0.15056351 -0.38321382 -0.5915822 -0.4901445
000220 87 d8 05 3d 53 ed 92 3d f7 42 34 be 8e ae a1 bc
       0.0326772 0.07174172 -0.1760367 -0.019736554
000230 67 66 c9 bd 0e bc 41 bd 3d e1 e7 bc d2 0e 86 3e
       -0.09833985 -0.047298484 -0.028305644 0.26183182
000240 7c 43 2b be 0c 4f c5 bd 03 96 0e 3e ba 52 83 be
       -0.16724962 -0.096342176 0.13924412 -0.25649053
000250 f2 1e a8 3d 32 3c 43 3e 13 19 48 3e f6 8c 67 be
       0.08209027 0.19065931 0.19540815 -0.22612366
000260 4a eb 41 3e da 3d e9 bd 5c f4 40 3e dd 01 17 3d
       0.18937412 -0.113887504 0.18843216 0.03686701
000270 ea 0c 87 be 46 81 10 be b6 38 dd bd ce 94 f0 3d
       -0.2637704 -0.14111814 -0.108018324 0.11747132
000280 b9 bf e7 bd d5 ec 1b 3e 4e 6d 09 bd fc 5e 8d be
       -0.11315865 0.15227063 -0.033551507 -0.2761153
000290 d9 d3 e9 3c 5a 10 98 be b2 90 98 3d e5 92 42 be
       0.0285434 -0.29699975 0.074494734 -0.19001348
0002a0 c6 be c1 be f2 c7 47 be 59 97 56 be 68 63 39 3e
       -0.3784086 -0.19509867 -0.20956172 0.18104327
0002b0 8f f7 62 be f0 24 12 be 49 60 ac bd b6 0a 66 be
       -0.22164749 -0.14271903 -0.084168024 -0.22465023
0002c0 d4 d9 1d bd 94 f0 52 be fb ec 2c be 7e 4f f4 bd
       -0.038537815 -0.20599586 -0.16887276 -0.119292244
0002d0 7f ab 3f 3c 09 92 5a 3e 31 24 5f 3c 0e 63 6b 3e
       0.011698603 0.2134477 0.013619469 0.22987005
0002e0 bf be 30 3e bb 18 78 3e b3 62 4e be 01 b7 44 be
       0.17260264 0.24228184 -0.20154838 -0.19210435
0002f0 79 27 29 be 95 4c 66 be e7 d3 a2 3e eb 85 60 bb
       -0.16518964 -0.22490151 0.31802294 -0.0034259509
000300 79 b5 2b 3e da bd 11 3e e6 51 2b 3e e4 4e 50 3e
       0.16768445 0.14232579 0.1673046 0.20342594
000310 5f 28 8c 3e 60 f7 2e 3e c8 66 8d 3d 34 e1 dd bd
       0.2737455 0.17086554 0.069043696 -0.1083397
000320 80 5a 3a 3e c6 0d a9 be df 44 a2 3d bd 6d 4c be
       0.18198586 -0.3301832 0.07923292 -0.19963737
000330 ea ab fb be dd c1 c1 be 3d d8 7f 3e f0 b0 92 be
       -0.49154598 -0.37843218 0.24984832 -0.28650618
000340 cd cc 8b bd 09 15 90 be 09 8e d0 3d 9a 94 72 be
       -0.06826172 -0.2814105 0.10183341 -0.236895
000350 c3 bf 16 be bc 5d a1 bd 3c d4 1d 3e b0 60 5f 3e
       -0.14721589 -0.078792065 0.15412992 0.21814227
000360 4c a2 08 3e a2 b3 af bd 12 a3 03 bd d8 fb a3 be
       0.13343161 -0.08579184 -0.032137938 -0.3202808
000370 75 af 16 be df 42 e8 be 85 7e 77 be ab a6 6e be
       -0.14715369 -0.4536352 -0.24169357 -0.23305766
000380 9e 1b e9 bd 3c 02 e1 bd ba 54 4a 3e 58 f8 f6 3d
       -0.11382221 -0.10986754 0.19758883 0.120590866
000390 e2 92 78 bd 2d 9b 9a be 26 37 43 be 8f 2d 7d 3e
       -0.060686953 -0.30196515 -0.19064006 0.2472441
0003a0 fa 8e 42 bc 1c 02 7c be 14 35 ee 3c 38 fa 49 3e
       -0.011874909 -0.2461018 0.029078044 0.19724357
0003b0 e4 d6 e0 3c 64 af c9 be 3e 61 85 3e 2d a5 9b 3d
       0.027446218 -0.39391625 0.26050752 0.07599864
0003c0 8a cd 27 be 78 e2 f9 be b5 9f 01 3e 66 8e ad bd
       -0.16387 -0.48805594 0.1265858 -0.08474426
0003d0 d6 33 05 3e 0a 97 79 3e ae 2e 33 3c b0 32 61 be
       0.13008055 0.24374023 0.010936422 -0.21991992
0003e0 a2 84 8b be ad 1d a1 be 9e 03 7b be 46 4a 16 be
       -0.27249628 -0.31467953 -0.24513099 -0.1467677
0003f0 3f 7a 0e 3e 86 5b 6f be 2d 26 09 3e 9a a1 ab be
       0.1391382 -0.23374757 0.13393469 -0.3352173
