modelx.tflite (tflite, 475060 bytes, 6 tensors)

dense_2/bias f4 [10]
000000 0f 84 40 3c 22 7d 08 be af be 5c bd f6 13 3c be
       0.011750235 -0.13328984 -0.053892788 -0.1836699
000010 6f 16 3e 3c 67 4f 1a bd 3f 07 bd 3c e3 55 8c bd
       0.011602028 -0.03767338 0.023074744 -0.06852319
000020 60 1a 88 3e 7b 47 b6 3d
       0.26582623 0.089003526

dense_1/bias f4 [128]
000000 12 dc 1b 3d 07 61 2a 3d 41 89 3f 3d aa 32 6f bd
       0.038051672 0.04159644 0.046761755 -0.058397926
000010 28 3d 16 3d 9d c6 12 3e 51 c7 ee bd c4 56 68 3b
       0.036679417 0.14333577 -0.1165911 0.0035452107
000020 cb 6b cd 3d 18 db c9 bd cc a7 d0 3c 8d 6c 94 3d
       0.100303255 -0.09856242 0.025470637 0.07247267
000030 0f ec 64 3e 15 4a 0a 3d 96 48 c2 3d f2 80 9b bd
       0.22355674 0.033762056 0.09486501 -0.07592954
000040 8b 85 22 3d 9e 98 0c be d0 67 cf 3d 8e 56 11 bd
       0.039678138 -0.13730094 0.101272225 -0.035482936
000050 a0 81 91 bc bf af c8 3d f5 49 f9 bd cc 61 bc 3d
       -0.017762005 0.09799146 -0.12172309 0.09198341
000060 74 54 45 3e 86 64 07 3e 95 a7 93 3b cc a0 77 3d
       0.19270498 0.1322194 0.0045060613 0.060456082
000070 81 bc 18 3d 82 6d 08 bb 66 c3 8f bd cb ad c0 3d
       0.037289146 -0.0020817225 -0.07019691 0.094081484
000080 df 20 d0 ba f0 b5 f6 3d 29 35 f2 3c bb 0f d9 bc
       -0.0015878937 0.120464206 0.029566364 -0.026496759
000090 7c 79 12 3e fa 97 54 bc 50 75 12 be 88 f1 58 bd
       0.14304155 -0.012975687 -0.14302564 -0.052964717
0000a0 0a 06 d8 bd 52 53 9e bd de 65 47 3c 5e 6f 45 3d
       -0.10548027 -0.07730736 0.012170283 0.04820191
0000b0 73 93 b6 bd 5e 84 19 bd f6 85 37 3d 3c aa 04 3e
       -0.089148425 -0.03747975 0.04480549 0.12955564
0000c0 91 65 80 bd 99 e3 0f 3e 30 21 cc 3d b5 69 2e 3b
       -0.06269372 0.14051665 0.099672675 0.00266133
0000d0 c1 79 6a 3e a5 10 39 3e c9 1f 41 3e 87 ef 98 bd
       0.22898008 0.18072756 0.18859781 -0.07467561
0000e0 5e 5e ce bd d0 c8 ba bc 63 26 69 3d 4a 17 80 bd
       -0.10076593 -0.022800833 0.056921374 -0.06254442
0000f0 d0 f2 7a bd d4 d2 d2 3d d6 8a b5 bc e4 b6 c9 3c
       -0.06126672 0.102941185 -0.022160929 0.024623342
000100 71 b0 29 3d 32 95 8b 3d ea 1c 22 bb ff 87 9b 3d
       0.041428033 0.06815566 -0.0024736472 0.075942986
000110 f5 a3 d5 3c e7 b4 5b 3c cf 37 ad bb 60 10 16 bc
       0.026079157 0.01340983 -0.005286194 -0.009159178
000120 96 98 28 be ff b9 3d 3c c6 fe 38 bd d9 2b 25 bd
       -0.16464457 0.011579989 -0.045164846 -0.04032502
000130 95 43 54 3d 0f 29 bb 3d c5 0a 3b 3e d1 ce 0a bd
       0.051822264 0.09138691 0.18265827 -0.03388864
000140 4e 2f 73 bd 13 b1 7e bd 87 69 2d 3e b7 dc f1 3c
       -0.059371285 -0.06218059 0.16934787 0.02952419
000150 ce 56 76 3d 4a cc ab 3d 91 84 da 3d 61 6f 37 3e
       0.060141377 0.083885744 0.10669816 0.17913581
000160 86 50 80 3d db 55 2a 3d 9d c9 3a 3e 4d b7 e1 bc
       0.062653586 0.041585784 0.18240972 -0.027553225
000170 f2 75 d1 bc b2 8d 6c 3d 6f a1 7d bd 22 ce 53 bd
       -0.025568936 0.05775232 -0.061921533 -0.051710255
000180 f9 77 3a 3b 14 9a 68 3e f4 58 06 bc c3 c2 22 bd
       0.0028452857 0.22715026 -0.008199919 -0.03973652
000190 36 a2 2c 3d 0a bc 1e be 4d 80 98 3d e5 58 41 3e
       0.042146884 -0.15501419 0.074463464 0.18881567
0001a0 70 ba a8 bd 90 f7 23 bb 27 7b ac bd ad 33 c3 3d
       -0.08238685 -0.0025019385 -0.08421927 0.09531341
0001b0 a5 ad 24 bd 68 09 bd bd 6e 22 cd bb da 74 46 bd
       -0.040204663 -0.0923031 -0.006260208 -0.048451282
0001c0 73 a9 2e 3e 1f 87 2a 3e 04 7e 3e 3e 2f 0a cc bd
       0.17056827 0.16653107 0.18602759 -0.0996288
0001d0 d6 c0 0b 3d 36 a7 3e bd c3 62 03 be d4 3d 35 bd
       0.03411945 -0.046546184 -0.12830643 -0.044248417
0001e0 e8 fa cd bd 4d 8c da 3d 39 66 10 3d 41 e9 0c bc
       -0.10057622 0.106712915 0.035253737 -0.008600534
0001f0 ad 3e 40 3c 5b 5b 5a 3e 73 94 ea 3d bb 33 17 3e
       0.011733693 0.21323912 0.11454096 0.14765827

dense/bias f4 [128]
000000 c9 bb 6e bd c7 6b bc 3d 98 ab 1f 3d 61 13 c4 3d
       -0.058284555 0.092002444 0.038982004 0.09574009
000010 69 da 82 3d 9d ac 69 3d fc 88 7f 3d c6 00 20 3e
       0.06389315 0.057049382 0.062386498 0.15625295
000020 b9 74 c2 bd 82 a5 00 bc f5 c0 de bb 31 f9 29 bd
       -0.09494919 -0.00785196 -0.0067979046 -0.041497413
000030 2f 97 08 3e 2d ac 9e 3d a4 2f 39 bd ad 89 d6 3c
       0.13338922 0.07747684 -0.04521145 0.026188696
000040 72 28 55 bd 7a d1 99 bd a2 aa b0 bc ac 0c 9c bd
       -0.052040525 -0.075106576 -0.021565739 -0.076196045
000050 23 13 30 bd e2 eb 4f bd 06 f9 c4 bc 75 33 3f 3a
       -0.042987 -0.050762065 -0.024044525 0.00072937395
000060 8a 4f 1b bd 55 b8 7b 3d 8f 7e 4c 3d ca d4 31 3d
       -0.03791765 0.06145509 0.049925383 0.043415822
000070 0e 0d 62 3d ee 2e b7 bc 97 69 4d 3d a7 e2 45 bc
       0.05518823 -0.022361245 0.050149526 -0.012077964
000080 59 ca ae 3d 30 6d ef 3d 7a ab c7 bd 60 0e 4f 3d
       0.085346885 0.11690748 -0.097495034 0.05055082
000090 ab 59 4f 3c 9e 82 f9 3c c3 11 8c 3c fb a3 61 bc
       0.012655656 0.030457791 0.017098313 -0.013772006
0000a0 27 e0 77 bd 29 bd a1 bd 7f ca 8d 3d c5 7c 0f bd
       -0.060516503 -0.078974076 0.06923389 -0.0350311
0000b0 e0 78 b0 bd 18 b4 8c bc f4 31 25 bd 58 c9 92 3d
       -0.08616805 -0.01717572 -0.040330842 0.071673095
0000c0 54 40 64 3c e8 05 72 bd 6e 2e 8e bc e1 88 91 bd
       0.013931353 -0.059087664 -0.017356124 -0.07106186
0000d0 30 89 06 3d 06 b4 ed bc d5 e2 af bc 2f 51 81 3d
       0.032845676 -0.029016506 -0.021470467 0.06314313
0000e0 60 42 37 be d7 f8 90 3d 64 f0 6b bd 8c 1e 89 3d
       -0.17896414 0.070787124 -0.0576023 0.066952795
0000f0 f6 df 5f bc ea eb 55 3c 9d 59 b6 bd ba 77 29 3e
       -0.013664236 0.013056735 -0.08903811 0.16549578
000100 0b f1 32 be 0c c5 40 bc 73 30 09 bd 39 cc db bb
       -0.17474763 -0.01176573 -0.03349347 -0.006707695
000110 3c a1 bb bd cf d8 25 3d a1 be fc 39 5c 5d b2 bd
       -0.091616124 0.040489968 0.00048207215 -0.08709213
000120 2a 36 78 bc 5d 65 1f 3d 0a 95 fb bd f8 15 1f 3e
       -0.0151496325 0.038915027 -0.12284286 0.15535724
000130 7d c7 12 bd 1f 9e 58 bd 06 10 f2 bd 90 14 e3 bd
       -0.035834778 -0.05288517 -0.118194625 -0.11087906
000140 c6 cd 0f 3e f4 23 a9 bd 72 15 2e bc b9 eb 7a 3d
       0.1404334 -0.08258811 -0.01062523 0.06125996
000150 c1 b3 88 bd eb 45 4f bd 75 00 d1 3d 2c 95 aa 3d
       -0.0667491 -0.05060379 0.10205165 0.083292335
000160 10 8d 89 bd 81 01 ad 3d 7e b1 45 bd a2 f7 ab 3d
       -0.06716359 0.084475525 -0.048264973 0.083968416
000170 91 f7 4a 3d 76 70 bf bb fc 46 4d 3d 50 2b e9 3d
       0.049552504 -0.005842264 0.050116524 0.11385214
000180 90 d0 01 3e 21 dd b0 3d 80 1a d0 bb 46 26 e0 bd
       0.12677217 0.08635927 -0.0063508153 -0.109448
000190 5f 73 bc bd e6 f4 dc bb 97 8d 93 3c cd d4 22 bd
       -0.09201693 -0.0067430614 0.018011851 -0.039753724
0001a0 e9 95 9b 3d b8 00 9e bd f6 7c 10 3c 56 ff 06 be
       0.075969525 -0.07714981 0.0088188555 -0.1318334
0001b0 b4 a7 91 3b 24 bf 7c 3d 5e 10 eb bd 16 f9 e0 3d
       0.0044450406 0.061705723 -0.11477731 0.10985009
0001c0 ac b4 c4 bd c0 f5 ab 3d c4 41 b6 3d 22 82 4d 3d
       -0.09604773 0.083964825 0.088992625 0.050172932
0001d0 4a af 14 be 0a 04 8b 3c 22 78 cf bd f1 79 1b bd
       -0.14519992 0.0169697 -0.101303354 -0.03795809
0001e0 40 7c 90 bd ca a7 e2 3c f3 bc 5b bd 4e d1 00 be
       -0.07054949 0.027667899 -0.053646993 -0.12579843
0001f0 db 29 58 be 6f 8d 21 3c d8 70 84 bc 87 d5 01 3e
       -0.21109717 0.009860381 -0.01616709 0.1267911

sequential/dense/MatMul f4 [128, 784]
000000 94 f7 89 bc 18 1e 1c 3c f5 64 9e 3d c5 0e a1 3d
       -0.016841687 0.009528659 0.077341 0.07864145
000010 c2 0e 3d 3d 68 7e 8b bc 70 5a 0b 3c 70 41 38 3c
       0.046156652 -0.017028049 0.008505449 0.01124607
000020 dc 5e ac 3c a0 dd 31 bd 80 61 de 3b b0 65 0a 3d
       0.021041326 -0.04342425 0.0067865252 0.033788383
000030 ff 67 5f bd 9f 60 af bd d1 04 ca bd 0c 0a 02 3d
       -0.054542538 -0.08563351 -0.098642 0.031747863
000040 a0 77 90 bd a9 18 01 bd 3f d7 88 3d b4 63 1d 3d
       -0.07054067 -0.03151766 0.0668168 0.038425162
000050 46 92 7d 3d 46 3e 73 bd 4e 40 4f 3d d0 ce b3 3c
       0.061907075 -0.05938556 0.050598435 0.021949202
000060 e2 bf 0e bd 9c 7c c6 3c 40 50 94 3a 10 e7 86 bd
       -0.034850962 0.02422934 0.001131542 -0.065870404
000070 80 b6 91 bd 48 48 2e 3d c0 6c 34 bc 80 27 d9 3c
       -0.07114887 0.0425494 -0.011012256 0.026508093
000080 d3 93 00 3c de b1 fc 3c 68 c1 8e bc ba 44 34 bb
       0.007847744 0.030846532 -0.017426208 -0.0027506785
000090 7d 56 ab 3b 6c 0f 39 3d 9e 0c 8d 3d 01 af e2 3d
       0.005228816 0.045180723 0.06887172 0.110685356
0000a0 ee 94 b4 3d c0 4c 38 3d 82 23 84 3d be bb 0e 3e
       0.088174686 0.04499507 0.06452085 0.13938805
0000b0 8c 40 09 bc 8c a9 34 3d 94 92 2a 3d a9 28 01 bd
       -0.008377206 0.044107005 0.041643694 -0.031532917
0000c0 f9 02 31 bd ab a2 c5 bc 38 cf 8b 3d 48 a9 05 bd
       -0.043215726 -0.024125418 0.06826633 -0.032632142
0000d0 ec 2d 88 bd 5f 00 9b bd 70 ab e9 3c f0 23 0a 3c
       -0.06649384 -0.0756843 0.02852413 0.00843142
0000e0 bb a8 88 3d 76 56 36 bd 94 cb 05 3d b3 d6 d5 3d
       0.06672808 -0.04451605 0.03266485 0.10441341
0000f0 d2 31 8a 3d 7f 74 42 b9 15 ef cf bc 92 df 84 bc
       0.06747784 -0.0001854468 -0.025382558 -0.016219888
000100 4d 5a e3 bc 22 b1 98 bd d6 24 e7 bc a0 d8 56 3d
       -0.02775302 -0.074556604 -0.028215807 0.052452683
000110 a3 9f 8f bd 08 66 5a 3d 29 d5 83 3d 72 df cb 3d
       -0.0701287 0.05331996 0.064371414 0.09954728
000120 59 14 19 3e 09 71 81 3d 81 a3 91 3d 36 d2 87 3c
       0.14949168 0.06320388 0.07111264 0.016579729
000130 0c 00 bd bd 88 41 3c 3e b4 83 35 3a 3d ac a8 bc
       -0.092285246 0.18384373 0.00069242273 -0.020589942
000140 d6 95 0c bc 12 7c c7 bb 6d 45 8c 3d f2 0c 7f bd
       -0.008580646 -0.0060877884 0.068491794 -0.062268205
000150 22 4a 7d 3d 56 d9 61 3d 22 50 3b bd 2b 75 ca 3d
       0.061838277 0.05513891 -0.045730717 0.09885629
000160 e6 9b 09 3d f9 99 c7 3a 90 d4 4d bd 08 7e e4 bc
       0.033595942 0.0015228383 -0.050251544 -0.027892128
000170 3f fd 71 bd 8d 26 69 3b fb 5d 09 be b4 51 1c be
       -0.059079405 0.0035575957 -0.13414757 -0.15265542
000180 b2 71 89 be 31 38 cf bd 74 e0 b1 3d 2d 83 05 bc
       -0.26844555 -0.101181395 0.08685389 -0.0081489505
000190 ed 89 82 3d 9a 6d d6 3d 23 3a 6d 3d 64 e0 da 3c
       0.063739635 0.104701236 0.05791677 0.026718326
0001a0 ed 75 03 be e3 99 1d bc f7 0c d9 bd 49 11 21 bd
       -0.12837954 -0.009619209 -0.10598176 -0.039323125
0001b0 fa b0 1f be 06 0f 83 3c 64 0a 81 3d cd 69 15 bd
       -0.15594855 0.015998375 0.0630081 -0.036477853
0001c0 f8 51 29 3c 6e 63 1b bd 67 88 49 bd cb 19 b7 bd
       0.010334484 -0.03793662 -0.04920235 -0.089404665
0001d0 a9 d2 cd bd e1 83 e9 bd 03 6d 39 be e2 8e 06 be
       -0.10049946 -0.11402107 -0.18107991 -0.13140443
0001e0 51 fc 65 be f6 bd 74 be a2 27 25 be d4 b2 0a be
       -0.22459532 -0.2390059 -0.161284 -0.1354478
0001f0 7f db b6 bd 81 0f 6a bd 6e 60 03 3d 75 91 b2 bb
       -0.08928584 -0.057143692 0.032074384 -0.0054494687
000200 5a 72 a6 3d 90 91 a5 3c 9d e3 84 3d b2 db 1a be
       0.081272796 0.020211011 0.06488726 -0.1512287
000210 94 98 dc bc 58 f9 12 be 10 1c c2 bd cb dd 5c bd
       -0.026928224 -0.1435293 -0.09478009 -0.053922456
000220 0d 82 85 bd 3a 3e 1e 3d 1f 50 75 3d 80 5e a1 3d
       -0.06518946 0.038633563 0.059890863 0.078793526
000230 80 4f 9c bb b8 25 27 3c 4d 25 18 bd b1 39 2a be
       -0.0047702193 0.010201864 -0.037144948 -0.1662357
000240 fd 07 18 be f9 e5 20 be 41 e4 8b bd c1 dc b4 bd
       -0.14846797 -0.15712728 -0.06830645 -0.08831168
000250 1d a6 2a be a5 8e f0 bc dc 41 96 bd a2 32 9c 3c
       -0.1666493 -0.029364893 -0.073367804 0.019067112
000260 ae 6d 7f 3d 8e 84 85 bc 4e a5 84 3d 9d 64 b0 3d
       0.062360458 -0.016298559 0.06476842 0.086129405
000270 32 e1 08 3e 68 f6 57 3d 95 0e f8 bb 01 99 a8 3a
       0.13367155 0.052725226 -0.0075700977 0.0012862982
000280 92 d2 be bd 7a d4 0a bd 46 cc 6e 3c 52 f1 b2 bd
       -0.09317507 -0.03389404 0.01457507 -0.087374344
000290 6e c5 2f 3c 1e d2 0e 3e fb b4 e7 3d 80 8d a6 3d
       0.010728223 0.13947341 0.11313816 0.08132458
0002a0 6b c3 a5 bd e0 42 1a 3d 9a 52 ab 3d 8d ee 3c be
       -0.08093914 0.037661433 0.083653644 -0.18450375
0002b0 17 25 ee bd 21 f9 7e bd 49 cc 1a be e2 01 15 be
       -0.11628168 -0.062249307 -0.15116991 -0.145515
0002c0 cc f1 dd bc 51 50 01 bd 16 d5 9b bd f3 ae b6 3c
       -0.027092837 -0.031570736 -0.07609002 0.02230022
0002d0 05 8d 54 3d 41 24 ba bb c6 5a 7b 3d c4 f2 8b 3d
       0.0518923 -0.0056805913 0.061365865 0.06833413
0002e0 a3 97 22 bd 2e 30 99 bb 12 8a ac 3c 64 00 32 3c
       -0.039695393 -0.004674933 0.02106193 0.010864351
0002f0 ab 61 0e be 6d 54 80 bd ec f2 03 bd db 84 28 3b
       -0.13904445 -0.06266103 -0.03221409 0.0025713954
000300 8f cf 57 bd f0 c7 c7 3d 70 c5 c1 bd d0 73 08 3c
       -0.052688178 0.09754932 -0.09461486 0.008328393
000310 a1 5f 8f 3d 54 62 87 bd c5 15 c6 3b 1d 6f 99 3b
       0.07000662 -0.066105515 0.0060450756 0.004682435
000320 d0 fc 9b bd 89 e2 8e 3d 29 9e a9 bd 28 e0 ef 3c
       -0.076165795 0.06976802 -0.0828212 0.02928169
000330 65 db 30 3d 33 79 48 bd af de 8f 3d c9 0f c8 3c
       0.04317798 -0.04894371 0.070248954 0.02442159
000340 ff ba 30 3d 94 95 98 3d df ef 28 3c 7d e3 80 3d
       0.043147083 0.07450405 0.010311096 0.0629339
000350 53 fb 81 bd cd 5b c7 bd ae 94 11 3d 52 c6 c2 bd
       -0.063467644 -0.097343065 0.035542183 -0.09510483
000360 a3 9a a9 bd 31 09 47 bd 80 fd c0 bd a1 36 5d 3c
       -0.08281448 -0.04859275 -0.09423351 0.013501794
000370 6f 75 ac bd 80 42 0e bd 7a 00 8d 3d b9 b8 aa bc
       -0.08420836 -0.034731388 0.068848565 -0.020840036
000380 46 98 51 3d fc 2f 13 be e2 92 8c bd 0e b1 8b 3c
       0.05117061 -0.14373773 -0.06863953 0.0170522
000390 64 59 84 bd 18 81 8f bd d0 3a a0 3d 80 72 d8 bb
       -0.064623624 -0.070070446 0.078237176 -0.0066054463
0003a0 c8 2d 0a 3d 52 b0 5d bd 12 be 18 bd 75 8f 02 3e
       0.033735067 -0.05412323 -0.03729064 0.12750037
0003b0 89 72 a5 3d 17 47 1a 3e 6e 3f e0 bd f9 85 28 bd
       0.080784865 0.15066181 -0.10949598 -0.04114339
0003c0 74 57 54 bd fa 56 c3 bc 91 e1 43 bd 07 1b 1e 3d
       -0.051841214 -0.023845185 -0.04782254 0.038599994
0003d0 49 b5 25 bc 31 5d 3a 3d 76 28 1b 3d 91 00 3d 3d
       -0.0101140225 0.04549903 0.037880383 0.04614312
0003e0 19 75 40 3d 3a 67 90 3d 11 68 c7 3d 30 66 19 3e
       0.046986673 0.07050939 0.09736646 0.14980388
0003f0 a5 e7 38 3d 37 9f e4 bd 72 82 4b b9 21 65 cd 3a
       0.04514279 -0.1116318 -0.00019408183 0.0015670398

sequential/dense_1/MatMul f4 [128, 128]
000000 7b 5f 14 be a8 f5 86 bd e3 22 ca 3d 41 74 c1 3d
       -0.14489548 -0.06589824 0.09869935 0.09446002
000010 37 6f 5d 3e cf e1 6f 3a 56 59 43 bd 92 4f 7d be
       0.21624456 0.00091507746 -0.04769262 -0.24737385
000020 d5 4c 02 be 6e 36 f9 bd 47 97 86 be d9 13 cc 3d
       -0.12724622 -0.12168585 -0.2628729 0.09964723
000030 93 4b b0 bd cb e1 c7 bd 86 0d a7 3a f0 2d 25 3e
       -0.08608165 -0.097598635 0.0012745119 0.16130805
000040 ff d6 cb 3d 5c f9 4d be b4 fe 2a 3e 76 bb aa bd
       0.099531166 -0.20114654 0.16698724 -0.083365366
000050 15 dd 3e 3a ff e8 17 bd 63 62 23 be 3d b1 93 3e
       0.00072808686 -0.037087437 -0.159555 0.2884616
000060 ff 07 7d bd 13 72 40 3e b7 f7 dc bc 48 e2 05 bd
       -0.061775204 0.18793516 -0.026973588 -0.0326865
000070 80 28 03 be 30 3f ed bd 4e 01 69 3e 22 32 31 3d
       -0.12808418 -0.11584318 0.22754404 0.0432607
000080 f1 8d cb 3d a0 cf 08 3d 90 c5 89 be e7 ee d4 bc
       0.099391825 0.03340113 -0.2690854 -0.025992824
000090 6d 02 13 3e ba f2 14 3e 88 0e 41 3e d4 c0 54 3c
       0.14356394 0.14545718 0.188532 0.012985427
0000a0 93 78 1c 3e f6 de ae 3d 31 0a 2a bd ac 67 a0 3d
       0.1528037 0.0853862 -0.041513626 0.07832274
0000b0 0f de 14 be 2f 8f 11 3d 5c eb 59 3d 90 b8 3e be
       -0.14537834 0.03553694 0.05320297 -0.18625093
0000c0 2e e6 79 3d 69 90 7b be a5 dc 86 3c 7c bc 3e 3d
       0.061010532 -0.24566807 0.016462633 0.04656647
0000d0 15 c0 cb bd 0c 6f 91 bd 01 4a fc bd 89 38 45 3e
       -0.09948746 -0.07101259 -0.123188026 0.19259848
0000e0 eb 2d 02 3e c1 91 31 bd 51 22 98 3d f8 5b da bd
       0.12712829 -0.043351892 0.0742842 -0.10662073
0000f0 09 23 06 be c0 ba 22 3e ac cc 40 bd ac c0 b5 bd
       -0.13099302 0.15891552 -0.04707019 -0.0887464
000100 5d 39 66 3d 85 27 35 3e ef d6 5c 3d b5 d7 87 be
       0.05620705 0.17690857 0.053915914 -0.2653176
000110 ab 2f 36 be 2e 07 11 3e 06 00 89 bc cb 2e 24 3d
       -0.17791621 0.14162895 -0.016723644 0.040083688
000120 1b 77 ec 3c 6d be 4c 3d 04 35 12 3e f8 06 a7 bd
       0.028865388 0.04998629 0.14278036 -0.08155626
000130 df 8e 51 be 80 e5 7f 3e 5a a0 30 be 56 f8 57 bc
       -0.20464657 0.24989891 -0.1724867 -0.0131817665
000140 07 e1 20 3e b2 4b 05 be ab 3a 56 3e 5f c5 14 3d
       0.15710841 -0.13017157 0.20920818 0.03632104
000150 2c 04 b8 3d 06 87 a1 bd c6 1f c3 bd db 9a fe bd
       0.08985171 -0.07887082 -0.09527545 -0.1243188
000160 d1 33 db bd d3 e7 47 bd f3 47 18 be 3e 74 57 3b
       -0.107032426 -0.04880507 -0.14871196 0.0032875682
000170 32 49 a4 3e f8 d9 b9 3d 42 49 d6 3d d4 4c a5 3e
       0.32087094 0.09074777 0.104631916 0.32285178
000180 93 02 51 bd 1e 4b 28 3e 60 0a 5f 3d fc 04 53 3c
       -0.051027846 0.16434905 0.054453254 0.012879606
000190 98 db 36 3d 2a fc a6 bd f0 4c b6 3d d6 b9 4f 3e
       0.044643015 -0.08153565 0.089013934 0.20285735
0001a0 6e ee e1 bc 30 03 45 3d de 3e d6 bd d6 d1 96 3d
       -0.027579512 0.048098743 -0.1046121 0.07364242
0001b0 75 cf cd 3d e5 d0 20 3e 98 c6 8f bd e3 46 cd bd
       0.10049335 0.15704687 -0.070203006 -0.10023286
0001c0 e2 f5 70 bd ef ba 19 be 4f 6c cd 3d 18 70 92 be
       -0.058828242 -0.15012716 0.10030424 -0.28601146
0001d0 bd ad 9c 3c 8c 13 fa bd 27 06 80 3a cb 1d 42 bd
       0.019125814 -0.122107595 0.0009767459 -0.047391694
0001e0 23 f8 f0 3d 32 50 30 3e f9 cd 57 3d 1a 94 b4 bc
       0.11766078 0.17218092 0.052686665 -0.022043277
0001f0 1d 06 d6 3d 33 b4 b6 3d d9 9d a0 be c3 b3 16 be
       0.10450385 0.08921089 -0.31370428 -0.14717011
000200 56 55 ba bd c9 9f 1f be db 05 ad 3d 42 29 0c 39
       -0.09098308 -0.15588297 0.084483825 0.0001336681
000210 21 2f ff bd f5 71 18 3d 60 e3 1e 3e 23 8a 6a 3e
       -0.12460161 0.037218053 0.15516424 0.22904257
000220 c7 12 19 be b8 ce 0f 3e 9b 87 5f bd 61 23 4b bd
       -0.14948569 0.140437 -0.054572683 -0.049594287
000230 85 c5 9a bd 47 2b e5 bc d9 50 cd bc e6 b8 76 bd
       -0.07557205 -0.027974738 -0.025062965 -0.060234927
000240 16 e3 ae 3d 27 c4 26 3e 3a 30 03 3e 4b 61 d0 3d
       0.08539407 0.16285764 0.12811366 0.10174807
000250 75 3f 5f be 35 b5 6e be ac 3a 16 3e b0 24 1e 3d
       -0.2180155 -0.23311312 0.14670819 0.038609207
000260 53 9d 9f 3d 1d f2 5f 3d 38 44 c6 bd da 51 a7 3d
       0.07793679 0.054674257 -0.096809804 0.08169909
000270 90 e8 00 be f0 34 27 be 22 d8 d9 bd ed 9a 3e 3e
       -0.12588716 -0.16328788 -0.10636927 0.18613787
000280 e6 f0 fd 3d a1 37 42 3d 0a e4 33 3e 7a 18 87 3d
       0.12399463 0.047416333 0.17567459 0.065964654
000290 9c 49 8d 3e 91 fd 65 3e b1 08 81 be 7e 4f 1f 3e
       0.27595222 0.22460009 -0.25201944 0.15557668
0002a0 ff b1 bc bd 25 83 69 bd 5c 94 a7 3e 52 ce af 3d
       -0.092136376 -0.057009835 0.32730377 0.08584274
0002b0 6d 7b 6e bd ed 76 6d bd bd fa d2 3d 9c 34 7e 3d
       -0.058223177 -0.057974745 0.10301731 0.06206189
0002c0 41 91 aa bc 0e df 06 bc e4 94 29 bd a4 4d 8f be
       -0.020821216 -0.008231891 -0.04140176 -0.27988923
0002d0 3f f2 9d 3e 6e bd 01 3e 79 ec f4 bd 62 fc 84 3c
       0.30848882 0.12669918 -0.11959166 0.016233627
0002e0 19 d9 ff 3d 3c 77 87 bd 5d fc b6 bc 98 1d f6 bd
       0.1249258 -0.06614539 -0.022337133 -0.12017363
0002f0 ac 4f a2 bc 13 8c ab bc e2 70 e2 be 9e 0d 03 be
       -0.019813381 -0.020940816 -0.44226748 -0.12798163
000300 e4 6e 16 be ce a1 67 bd a8 00 29 bc b1 c1 43 be
       -0.14690739 -0.056550793 -0.010315098 -0.19116856
000310 ce 19 9b be 0f ad 2a 3e f5 22 33 3e 67 27 0e 3e
       -0.30293125 0.16667579 0.17493804 0.13882218
000320 64 2e 66 bc 0e 7f c2 3b f2 c1 a0 3d db 9a e3 3d
       -0.014049146 0.0059355563 0.07849492 0.11113521
000330 c5 cc be 3d fb 98 65 3c 9c 1b 42 be 78 46 1d be
       0.093164004 0.014013524 -0.18955845 -0.15358913
000340 ea 5f 2d 3d b9 bb 04 3e dc 4d 1e 3c de 23 57 bc
       0.0423278 0.12962236 0.009662118 -0.01313111
000350 57 52 7b bd 31 67 3a bd a4 8a 7f 3d d0 16 22 3d
       -0.061357822 -0.045508567 0.062388077 0.039572537
000360 5e ce 2c 3d dc 58 3f 3d 98 b2 d0 3c e9 e3 06 3d
       0.042188995 0.046715602 0.025475785 0.032932196
000370 c9 f9 16 bd 01 c6 19 3d ea dc fb 3d d9 28 41 3e
       -0.036859307 0.037542347 0.122979954 0.18863238
000380 48 e9 18 be 0a 87 20 3c 06 a5 ac be cf 92 9c be
       -0.1493274 0.009797821 -0.33719653 -0.30580756
000390 c2 71 af 3b 00 e1 53 3e 47 93 e7 3d 2d 19 81 bd
       0.005354137 0.206913 0.11307388 -0.0630363
0003a0 49 2c 10 3e d1 f0 18 be e6 99 34 3d 83 aa 82 bb
       0.14079393 -0.14935614 0.04409208 -0.0039876117
0003b0 43 9e c0 3d d4 78 ed bb fa 9f 76 3c a0 4c 60 bd
       0.09405186 -0.00724707 0.01505279 -0.054760575
0003c0 11 be bf bd 54 36 55 3e dd 88 32 3b 13 1f 78 bd
       -0.09362424 0.20821506 0.0027242221 -0.06057651
0003d0 93 a9 59 bd bc 39 8e 3e 5b 57 37 bd b8 43 53 be
       -0.053140234 0.27778423 -0.044761043 -0.20631301
0003e0 1d 70 eb 3d 0a 2e 22 3e 5a fe 65 be b1 90 0b be
       0.11495993 0.15837875 -0.22460309 -0.13629414
0003f0 3b 37 a0 be f1 ae 2e 3d 3b d0 18 3e 60 34 a1 3d
       -0.31292138 0.042647306 0.14923184 0.07871318

sequential/dense_2/MatMul f4 [10, 128]
000000 03 f0 b5 be 24 60 cf bc e9 b5 96 bb a2 a6 c4 3e
       -0.35534677 -0.025314398 -0.004599322 0.3840838
000010 5a f8 93 be 42 2f 1d 3e 3b 05 a4 be 28 cf ae be
       -0.28900415 0.15350059 -0.3203524 -0.34142423
000020 5c 77 08 3e 01 bd 33 bd f3 99 a2 be 1f 73 67 be
       0.13326782 -0.04388142 -0.3175808 -0.22602509
000030 e5 dd 00 bd 32 e6 3c 3e f1 6d d8 be 43 b6 39 bd
       -0.031461615 0.18447188 -0.4227138 -0.045339834
000040 92 70 55 be 22 af 9c 3d be b2 01 bd 5a 35 41 be
       -0.20843723 0.076505914 -0.031664602 -0.18868008
000050 b8 63 ce 3d cf 83 d4 be ba 62 16 3d 92 b8 31 3e
       0.100776136 -0.41506812 0.036715247 0.17355564
000060 1c 3f 07 3e ac c4 38 be 11 75 89 be 60 83 15 be
       0.13207668 -0.18043774 -0.26847127 -0.14600897
000070 49 f7 f8 3d b6 95 38 3e e4 25 0e 3b 88 a9 2b 3e
       0.12156541 0.1802586 0.0021690065 0.1676389
000080 4b f1 a5 3e 77 0f ae be 97 ad 69 3e 54 e0 50 3d
       0.32410654 -0.33996174 0.22820126 0.050995186
000090 70 b1 4a be 91 0e af be 40 87 26 be 5e 04 f9 be
       -0.1979425 -0.341908 -0.16262531 -0.48636144
0000a0 d0 f1 e0 3d 46 82 55 be ff 7c 2b 3e 7a 32 87 3e
       0.10983622 -0.20850477 0.16746901 0.26405698
0000b0 9a 0f 74 bc be 40 7c 3e 9a 11 90 be 52 28 55 3e
       -0.014896298 0.24634072 -0.2813843 0.20816162
0000c0 71 09 fc 3d ab c4 b7 bd 66 71 a0 be 5e be 92 be
       0.12306488 -0.08973058 -0.31336516 -0.28660864
0000d0 12 25 4a be 4e 55 53 be 78 60 4d 3e 31 d6 95 be
       -0.19740704 -0.2063801 0.20056331 -0.29264978
0000e0 0a 75 5a be 9f 67 25 be 4e 10 40 3e 06 c7 bc 3c
       -0.2133371 -0.1615281 0.1875622 0.02304412
0000f0 aa c4 56 3d 1d b3 ba be 4d 60 c7 be 1a 93 31 bd
       0.052433647 -0.36464778 -0.3894066 -0.043353178
000100 ab f0 27 be 22 d5 2f 3e 12 3e 9d bd 01 be 73 be
       -0.16400401 0.17171147 -0.076778546 -0.2380295
000110 fb ac 6f 3e 52 b0 6e 3d 7a 28 cf be 37 b2 1f 3e
       0.2340583 0.05827362 -0.4046057 0.15595327
000120 85 2c 20 be 2f 1f 84 3e d8 6f d4 bd a7 82 1e 3d
       -0.15641983 0.2580504 -0.10372895 0.03869882
000130 7f 64 cf bd fd 54 2a be 48 3e 4d 3c 7a 89 7f 3d
       -0.1012659 -0.16633983 0.012527056 0.062386967
000140 b1 d2 96 be 5a a0 7e be 84 82 70 be fb 0f b4 bd
       -0.2945762 -0.24865857 -0.23487288 -0.087921105
000150 01 4e 90 bd 18 74 9e 3d 43 00 ce bd 62 ba 4c 3e
       -0.07046128 0.07736987 -0.10058644 0.19992974
000160 57 dd 54 be 9c c0 e2 3d d0 a9 02 bd 90 d6 71 3e
       -0.2078756 0.110718936 -0.031900227 0.23617005
000170 92 c4 b0 bd a8 ee a4 be 87 2e dd 3d 7e 7e 1f 3e
       -0.08631243 -0.3221333 0.1079989 0.15575597
000180 3e f5 44 3e 54 f6 46 be e7 9e a4 bd 98 07 09 3e
       0.19234177 -0.19429904 -0.08038121 0.13381803
000190 92 0d 1f be 42 e0 77 bc 76 a9 b7 3d be 0b d5 3a
       -0.1553252 -0.015129151 0.08967869 0.001625411
0001a0 47 1a b3 bc 5a 52 e0 be 5b 33 49 3e 70 06 b7 3d
       -0.021863116 -0.4381283 0.19648497 0.08936775
0001b0 cb f0 a1 be 92 f0 26 3d c8 d6 e0 3c 31 86 11 bf
       -0.31629023 0.04075677 0.027446166 -0.56845385
0001c0 a0 be 20 be e5 71 cc 3d f1 2a 5f 3e b8 c4 07 bf
       -0.15697718 0.09982661 0.21793725 -0.53034544
0001d0 94 d1 66 be 73 e5 b0 be 0d d1 f3 bc 9e bc 92 be
       -0.22540885 -0.34550056 -0.02976277 -0.28659528
0001e0 e0 90 6a bd 47 d8 3a 3e 5a 90 57 bd 65 f0 4c 3e
       -0.05726707 0.18246566 -0.0526279 0.20013578
0001f0 48 35 4d 3e f9 11 41 bd 73 05 89 3e 7c 92 4e be
       0.20039856 -0.04713628 0.2676197 -0.20173067
000200 c3 2c b9 3d ba 60 e0 bd bb 4e 02 bf de 44 c0 3e
       0.09041741 -0.10955949 -0.50901383 0.37552541
000210 2b fc f8 3d f7 e2 8b be 84 2e 47 be 52 1e 3c 3e
       0.12157472 -0.27321598 -0.19451338 0.18370941
000220 1c 68 ba bd 1f 48 a5 3d b2 01 73 3d 23 56 fc 3b
       -0.091018885 0.08070397 0.05932779 0.007700698
000230 02 c6 f6 3c 85 cf 36 3e e4 84 28 3e 7e f4 99 3e
       0.030123714 0.178526 0.16456944 0.30069345
000240 9d 0d d7 bd f1 4c 0d 3e 12 f6 c7 3d c9 da 03 3e
       -0.105006434 0.13798882 0.09763731 0.12876429
000250 40 34 98 bc e0 f9 5f 3e 60 06 76 3e 80 cd f8 be
       -0.018579602 0.21872663 0.2402587 -0.48594284
000260 28 07 90 be 92 7b 44 be 54 83 29 3e 28 e4 62 be
       -0.2813046 -0.19187763 0.16554004 -0.22157347
000270 ad 5b cb bd c6 57 f6 be 57 55 3e 3e 8a a0 72 be
       -0.09929595 -0.4811384 0.18587242 -0.23694053
000280 65 54 35 3e b0 c6 37 be b0 e7 97 be 73 c7 2c 3e
       0.17707975 -0.17946887 -0.2966895 0.16872959
000290 4f ef 94 3d 23 20 bd 3d bd 98 56 be d5 b4 9b bd
       0.07272207 0.09234645 -0.20956703 -0.0760285
0002a0 a4 30 a4 3c d1 8f 54 3e 36 22 5a bc 10 ba 80 3d
       0.020042725 0.20757987 -0.013313821 0.062854886
0002b0 b6 e4 b8 be a7 6d 00 bf 82 e4 76 3c 17 47 5f be
       -0.36111993 -0.50167316 0.015069129 -0.21804462
0002c0 04 41 8a be 18 1b d0 bd ca 69 84 3d 51 b6 6c bd
       -0.27002728 -0.10161418 0.0646549 -0.057791058
0002d0 42 be 91 bd 48 8d 61 3e a2 80 e1 be 8e 09 2f 3e
       -0.07116367 0.22026551 -0.44043452 0.17093489
0002e0 05 0f c7 3d ec 86 55 3d df b8 6c 3b a8 fb ec bd
       0.097196616 0.052130625 0.0036120934 -0.11571437
0002f0 7a 8f 64 3e ef c2 be 3c 5b 79 90 be 3c bd 87 bd
       0.22320357 0.023286311 -0.28217587 -0.066278905
000300 46 bc 88 be 1a 45 71 be 4c 21 8c 3d 20 69 65 3d
       -0.2670614 -0.23561516 0.068422884 0.05600846
000310 10 5f 9b be 5f 6a 1f be 16 65 3e 3e fe f3 93 3e
       -0.30345964 -0.15567921 0.18593249 0.2889709
000320 cd de 2f 3e 29 42 d1 be 85 de 61 3d c1 a9 35 3d
       0.17174836 -0.4087079 0.05514385 0.044351343
000330 81 0c 48 be 27 70 4c bd 69 34 e4 bd 41 6c f0 3d
       -0.1953602 -0.049911644 -0.11142809 0.11739398
000340 45 01 6f 3c a8 39 6e 3e bb 8f 81 be b0 09 4b be
       0.014587705 0.23264182 -0.2530497 -0.19827914
000350 0c 55 b0 be b4 88 e5 3d c2 d2 66 be 77 3c 73 be
       -0.34439886 0.11207715 -0.22541335 -0.23753534
000360 17 b2 8a be fa aa 97 be c2 f4 62 3e 1c 42 f7 3c
       -0.27088997 -0.29622632 0.2216368 0.03018289
000370 be 57 54 3e 10 09 e0 bd 76 d6 ce bd d7 52 56 be
       0.20736596 -0.109392285 -0.10099499 -0.20930038
000380 91 c9 c1 3d 4d 79 bf 3d 6b df a5 be 63 46 f8 3d
       0.09462274 0.09349308 -0.32397017 0.121228
000390 27 a4 de be 55 4d 60 3e 42 b7 32 be 14 6f 91 be
       -0.43484613 0.219045 -0.1745272 -0.28405058
0003a0 e2 0f 38 3e c5 e0 dd 3d a5 2a b5 be b8 df 78 be
       0.17974809 0.10833887 -0.35384098 -0.24304092
0003b0 5b d2 8b 3e bd ef a6 3d 52 67 68 bd 19 e4 e5 bc
       0.27308926 0.08151195 -0.05673916 -0.028062867
0003c0 77 14 76 be 66 d9 54 3b 26 cb 9c be 00 27 66 3e
       -0.24031244 0.0032478212 -0.3062374 0.22475815
0003d0 45 44 ae be a3 50 55 be 11 d0 04 be 33 70 6f 3e
       -0.3403646 -0.20831542 -0.12969996 0.23382644
0003e0 c6 db 88 be 68 1d 55 be 15 bc e2 3e 53 c0 9e bd
       -0.26730174 -0.20811999 0.4428412 -0.07751527
0003f0 71 a7 9d 3d 5e 9b 67 be b6 b3 5c 3e 62 e6 a2 3d
       0.076979525 -0.22617862 0.2155293 0.07954098
